…
-4e91-937c-e6d6012e418c"},"source":["for layer in base_model.layers[:]:\n","    layer.trainable = False\n","    \n","base_model.summary()"],"execution_count":null,"outputs":[{"name":"stdout","output_type":"stream","text":["Model: \"inception_resnet_v1\"\n","__________________________________________________________________________________________________\n","Layer (type)                    Output Shape         Param #     Connected to                     \n","==================================================================================================\n","input_2 (InputLayer)            [(None, 224, 224, 3) 0                                            \n","__________________________________________________________________________________________________\n","Conv2d_1a_3x3 (Conv2D)          (None, 111, 111, 32) 864         input_2[0][0]                    \n","__________________________________________________________________________________________________\n","Conv2d_1a_3x3_BatchNorm (BatchN (None, 111, 111, 32) 96          Conv2d_1a_3x3[0][0]              \n","__________________________________________________________________________________________________\n","Conv2d_1a_3x3_Activation (Activ (None, 111, 111, 32) 0           Conv2d_1a_3x3_BatchNorm[0][0]    \n","__________________________________________________________________________________________________\n","Conv2d_2a_3x3 (Conv2D)          (None, 109, 109, 32) 9216        Conv2d_1a_3x3_Activation[0][0]   \n","__________________________________________________________________________________________________\n","Conv2d_2a_3x3_BatchNorm (BatchN (None, 109, 109, 32) 96          Conv2d_2a_3x3[0][0]              \n","__________________________________________________________________________________________________\n","Conv2d_2a_3x3_Activation (Activ (None, 109, 109, 32) 0           Conv2d_2a_3x3_BatchNorm[0][0]    \n","__________________________________________________________________________________________________\n","Conv2d_2b_3x3 (Conv2D)          (None, 109, 109, 64) 18432       Conv2d_2a_3x3_Activation[0][0]   \n","__________________________________________________________________________________________________\n","Conv2d_2b_3x3_BatchNorm (BatchN (None, 109, 109, 64) 192         Conv2d_2b_3x3[0][0]              \n","__________________________________________________________________________________________________\n","Conv2d_2b_3x3_Activation (Activ (None, 109, 109, 64) 0           Conv2d_2b_3x3_BatchNorm[0][0]    \n","__________________________________________________________________________________________________\n","MaxPool_3a_3x3 (MaxPooling2D)   (None, 54, 54, 64)   0           Conv2d_2b_3x3_Activation[0][0]   \n","__________________________________________________________________________________________________\n","Conv2d_3b_1x1 (Conv2D)          (None, 54, 54, 80)   5120        MaxPool_3a_3x3[0][0]             \n","__________________________________________________________________________________________________\n","Conv2d_3b_1x1_BatchNorm (BatchN (None, 54, 54, 80)   240         Conv2d_3b_1x1[0][0]              \n","__________________________________________________________________________________________________\n","Conv2d_3b_1x1_Activation (Activ (None, 54, 54, 80)   0           Conv2d_3b_1x1_BatchNorm[0][0]    \n","__________________________________________________________________________________________________\n","Conv2d_4a_3x3 (Conv2D)          (None, 52, 52, 192)  138240      Conv2d_3b_1x1_Activation[0][0]   \n","__________________________________________________________________________________________________\n","Conv2d_4a_3x3_BatchNorm (BatchN (None, 52, 52, 192)  576         Conv2d_4a_3x3[0][0]              \n","__________________________________________________________________________________________________\n","Conv2d_4a_3x3_Activation (Activ (None, 52, 52, 192)  0           Conv2d_4a_3x3_BatchNorm[0][0]    \n","__________________________________________________________________________________________________\n","Conv2d_4b_3x3 (Conv2D)          (None, 25, 25, 256)  442368      Conv2d_4a_3x3_Activation[0][0]   \n","__________________________________________________________________________________________________\n","Conv2d_4b_3x3_BatchNorm (BatchN (None, 25, 25, 256)  768         Conv2d_4b_3x3[0][0]              \n","__________________________________________________________________________________________________\n","Conv2d_4b_3x3_Activation (Activ (None, 25, 25, 256)  0           Conv2d_4b_3x3_BatchNorm[0][0]    \n","__________________________________________________________________________________________________\n","Block35_1_Branch_2_Conv2d_0a_1x (None, 25, 25, 32)   8192        Conv2d_4b_3x3_Activation[0][0]   \n","__________________________________________________________________________________________________\n","Block35_1_Branch_2_Conv2d_0a_1x (None, 25, 25, 32)   96          Block35_1_Branch_2_Conv2d_0a_1x1[\n","__________________________________________________________________________________________________\n","Block35_1_Branch_2_Conv2d_0a_1x (None, 25, 25, 32)   0           Block35_1_Branch_2_Conv2d_0a_1x1_\n","__________________________________________________________________________________________________\n","Block35_1_Branch_1_Conv2d_0a_1x (None, 25, 25, 32)   8192        Conv2d_4b_3x3_Activation[0][0]   \n","__________________________________________________________________________________________________\n","Block35_1_Branch_2_Conv2d_0b_3x (None, 25, 25, 32)   9216        Block35_1_Branch_2_Conv2d_0a_1x1_\n","__________________________________________________________________________________________________\n","Block35_1_Branch_1_Conv2d_0a_1x (None, 25, 25, 32)   96          Block35_1_Branch_1_Conv2d_0a_1x1[\n","__________________________________________________________________________________________________\n","Block35_1_Branch_2_Conv2d_0b_3x (None, 25, 25, 32)   96          Block35_1_Branch_2_Conv2d_0b_3x3[\n","__________________________________________________________________________________________________\n","Block35_1_Branch_1_Conv2d_0a_1x (None, 25, 25, 32)   0           Block35_1_Branch_1_Conv2d_0a_1x1_\n","__________________________________________________________________________________________________\n","Block35_1_Branch_2_Conv2d_0b_3x (None, 25, 25, 32)   0           Block35_1_Branch_2_Conv2d_0b_3x3_\n","__________________________________________________________________________________________________\n","Block35_1_Branch_0_Conv2d_1x1 ( (None, 25, 25, 32)   8192        Conv2d_4b_3x3_Activation[0][0]   \n","__________________________________________________________________________________________________\n","Block35_1_Branch_1_Conv2d_0b_3x (None, 25, 25, 32)   9216        Block35_1_Branch_1_Conv2d_0a_1x1_\n","__________________________________________________________________________________________________\n","Block35_1_Branch_2_Conv2d_0c_3x (None, 25, 25, 32)   9216        Block35_1_Branch_2_Conv2d_0b_3x3_\n","__________________________________________________________________________________________________\n","Block35_1_Branch_0_Conv2d_1x1_B (None, 25, 25, 32)   96          Block35_1_Branch_0_Conv2d_1x1[0][\n","__________________________________________________________________________________________________\n","Block35_1_Branch_1_Conv2d_0b_3x (None, 25, 25, 32)   96          Block35_1_Branch_1_Conv2d_0b_3x3[\n","__________________________________________________________________________________________________\n","Block35_1_Branch_2_Conv2d_0c_3x (None, 25, 25, 32)   96          Block35_1_Branch_2_Conv2d_0c_3x3[\n","__________________________________________________________________________________________________\n","Block35_1_Branch_0_Conv2d_1x1_A (None, 25, 25, 32)   0           Block35_1_Branch_0_Conv2d_1x1_Bat\n","__________________________________________________________________________________________________\n","Block35_1_Branch_1_Conv2d_0b_3x (None, 25, 25, 32)   0           Block35_1_Branch_1_Conv2d_0b_3x3_\n","__________________________________________________________________________________________________\n","Block35_1_Branch_2_Conv2d_0c_3x (None, 25, 25, 32)   0           Block35_1_Branch_2_Conv2d_0c_3x3_\n","__________________________________________________________________________________________________\n","Block35_1_Concatenate (Concaten (None, 25, 25, 96)   0           Block35_1_Branch_0_Conv2d_1x1_Act\n","                                                                 Block35_1_Branch_1_Conv2d_0b_3x3_\n","                                                                 Block35_1_Branch_2_Conv2d_0c_3x3_\n","__________________________________________________________________________________________________\n","Block35_1_Conv2d_1x1 (Conv2D)   (None, 25, 25, 256)  24832       Block35_1_Concatenate[0][0]      \n","__________________________________________________________________________________________________\n","lambda_21 (Lambda)              (None, 25, 25, 256)  0           Block35_1_Conv2d_1x1[0][0]       \n","__________________________________________________________________________________________________\n","add_21 (Add)                    (None, 25, 25, 256)  0           Conv2d_4b_3x3_Activation[0][0]   \n","                                                                 lambda_21[0][0]                  \n","__________________________________________________________________________________________________\n","Block35_1_Activation (Activatio (None, 25, 25, 256)  0           add_21[0][0]                     \n","__________________________________________________________________________________________________\n","Block35_2_Branch_2_Conv2d_0a_1x (None, 25, 25, 32)   8192        Block35_1_Activation[0][0]       \n","__________________________________________________________________________________________________\n","Block35_2_Branch_2_Conv2d_0a_1x (None, 25, 25, 32)   96          Block35_2_Branch_2_Conv2d_0a_1x1[\n","__________________________________________________________________________________________________\n","Block35_2_Branch_2_Conv2d_0a_1x (None, 25, 25, 32)   0           Block35_2_Branch_2_Conv2d_0a_1x1_\n","__________________________________________________________________________________________________\n","Block35_2_Branch_1_Conv2d_0a_1x (None, 25, 25, 32)   8192        Block35_1_Activation[0][0]       \n","__________________________________________________________________________________________________\n","Block35_2_Branch_2_Conv2d_0b_3x (None, 25, 25, 32)   9216        Block35_2_Branch_2_Conv2d_0a_1x1_\n","__________________________________________________________________________________________________\n","Block35_2_Branch_1_Conv2d_0a_1x (None, 25, 25, 32)   96          Block35_2_Branch_1_Conv2d_0a_1x1[\n","__________________________________________________________________________________________________\n","Block35_2_Branch_2_Conv2d_0b_3x (None, 25, 25, 32)   96          Block35_2_Branch_2_Conv2d_0b_3x3[\n","__________________________________________________________________________________________________\n","Block35_2_Branch_1_Conv2d_0a_1x (None, 25, 25, 32)   0           Block35_2_Branch_1_Conv2d_0a_1x1_\n","__________________________________________________________________________________________________\n","Block35_2_Branch_2_Conv2d_0b_3x (None, 25, 25, 32)   0           Block35_2_Branch_2_Conv2d_0b_3x3_\n","__________________________________________________________________________________________________\n","Block35_2_Branch_0_Conv2d_1x1 ( (None, 25, 25, 32)   8192        Block35_1_Activation[0][0]       \n","__________________________________________________________________________________________________\n","Block35_2_Branch_1_Conv2d_0b_3x (None, 25, 25, 32)   9216        Block35_2_Branch_1_Conv2d_0a_1x1_\n","__________________________________________________________________________________________________\n","Block35_2_Branch_2_Conv2d_0c_3x (None, 25, 25, 32)   9216        Block35_2_Branch_2_Conv2d_0b_3x3_\n","__________________________________________________________________________________________________\n","Block35_2_Branch_0_Conv2d_1x1_B (None, 25, 25, 32)   96          Block35_2_Branch_0_Conv2d_1x1[0][\n","__________________________________________________________________________________________________\n","Block35_2_Branch_1_Conv2d_0b_3x (None, 25, 25, 32)   96          Block35_2_Branch_1_Conv2d_0b_3x3[\n","__________________________________________________________________________________________________\n","Block35_2_Branch_2_Conv2d_0c_3x (None, 25, 25, 32)   96          Block35_2_Branch_2_Conv2d_0c_3x3[\n","__________________________________________________________________________________________________\n","Block35_2_Branch_0_Conv2d_1x1_A (None, 25, 25, 32)   0           Block35_2_Branch_0_Conv2d_1x1_Bat\n","__________________________________________________________________________________________________\n","Block35_2_Branch_1_Conv2d_0b_3x (None, 25, 25, 32)   0           Block35_2_Branch_1_Conv2d_0b_3x3_\n","__________________________________________________________________________________________________\n","Block35_2_Branch_2_Conv2d_0c_3x (None, 25, 25, 32)   0           Block35_2_Branch_2_Conv2d_0c_3x3_\n","__________________________________________________________________________________________________\n","Block35_2_Concatenate (Concaten (None, 25, 25, 96)   0           Block35_2_Branch_0_Conv2d_1x1_Act\n","                                                                 Block35_2_Branch_1_Conv2d_0b_3x3_\n","                                                                 Block35_2_Branch_2_Conv2d_0c_3x3_\n","__________________________________________________________________________________________________\n","Block35_2_Conv2d_1x1 (Conv2D)   (None, 25, 25, 256)  24832       Block35_2_Concatenate[0][0]      \n","__________________________________________________________________________________________________\n","lambda_22 (Lambda)              (None, 25, 25, 256)  0           Block35_2_Conv2d_1x1[0][0]       \n","__________________________________________________________________________________________________\n","add_22 (Add)                    (None, 25, 25, 256)  0           Block35_1_Activation[0][0]       \n","                                                                 lambda_22[0][0]                  \n","__________________________________________________________________________________________________\n","Block35_2_Activation (Activatio (None, 25, 25, 256)  0           add_22[0][0]                     \n","__________________________________________________________________________________________________\n","Block35_3_Branch_2_Conv2d_0a_1x (None, 25, 25, 32)   8192        Block35_2_Activation[0][0]       \n","__________________________________________________________________________________________________\n","Block35_3_Branch_2_Conv2d_0a_1x (None, 25, 25, 32)   96          Block35_3_Branch_2_Conv2d_0a_1x1[\n","__________________________________________________________________________________________________\n","Block35_3_Branch_2_Conv2d_0a_1x (None, 25, 25, 32)   0           Block35_3_Branch_2_Conv2d_0a_1x1_\n","__________________________________________________________________________________________________\n","Block35_3_Branch_1_Conv2d_0a_1x (None, 25, 25, 32)   8192        Block35_2_Activation[0][0]       \n","__________________________________________________________________________________________________\n","Block35_3_Branch_2_Conv2d_0b_3x (None, 25, 25, 32)   9216        Block35_3_Branch_2_Conv2d_0a_1x1_\n","__________________________________________________________________________________________________\n","Block35_3_Branch_1_Conv2d_0a_1x (None, 25, 25, 32)   96          Block35_3_Branch_1_Conv2d_0a_1x1[\n","__________________________________________________________________________________________________\n","Block35_3_Branch_2_Conv2d_0b_3x (None, 25, 25, 32)   96          Block35_3_Branch_2_Conv2d_0b_3x3[\n","__________________________________________________________________________________________________\n","Block35_3_Branch_1_Conv2d_0a_1x (None, 25, 25, 32)   0           Block35_3_Branch_1_Conv2d_0a_1x1_\n","__________________________________________________________________________________________________\n","Block35_3_Branch_2_Conv2d_0b_3x (None, 25, 25, 32)   0           Block35_3_Branch_2_Conv2d_0b_3x3_\n","__________________________________________________________________________________________________\n","Block35_3_Branch_0_Conv2d_1x1 ( (None, 25, 25, 32)   8192        Block35_2_Activation[0][0]       \n","__________________________________________________________________________________________________\n","Block35_3_Branch_1_Conv2d_0b_3x (None, 25, 25, 32)   9216        Block35_3_Branch_1_Conv2d_0a_1x1_\n","__________________________________________________________________________________________________\n","Block35_3_Branch_2_Conv2d_0c_3x (None, 25, 25, 32)   9216        Block35_3_Branch_2_Conv2d_0b_3x3_\n","__________________________________________________________________________________________________\n","Block35_3_Branch_0_Conv2d_1x1_B (None, 25, 25, 32)   96          Block35_3_Branch_0_Conv2d_1x1[0][\n","__________________________________________________________________________________________________\n","Block35_3_Branch_1_Conv2d_0b_3x (None, 25, 25, 32)   96          Block35_3_Branch_1_Conv2d_0b_3x3[\n","__________________________________________________________________________________________________\n","Block35_3_Branch_2_Conv2d_0c_3x (None, 25, 25, 32)   96          Block35_3_Branch_2_Conv2d_0c_3x3[\n","__________________________________________________________________________________________________\n","Block35_3_Branch_0_Conv2d_1x1_A (None, 25, 25, 32)   0           Block35_3_Branch_0_Conv2d_1x1_Bat\n","__________________________________________________________________________________________________\n","Block35_3_Branch_1_Conv2d_0b_3x (None, 25, 25, 32)   0           Block35_3_Branch_1_Conv2d_0b_3x3_\n","__________________________________________________________________________________________________\n","Block35_3_Branch_2_Conv2d_0c_3x (None, 25, 25, 32)   0           Block35_3_Branch_2_Conv2d_0c_3x3_\n","__________________________________________________________________________________________________\n","Block35_3_Concatenate (Concaten (None, 25, 25, 96)   0           Block35_3_Branch_0_Conv2d_1x1_Act\n","                                                                 Block35_3_Branch_1_Conv2d_0b_3x3_\n","                                                                 Block35_3_Branch_2_Conv2d_0c_3x3_\n","__________________________________________________________________________________________________\n","Block35_3_Conv2d_1x1 (Conv2D)   (None, 25, 25, 256)  24832       Block35_3_Concatenate[0][0]      \n","__________________________________________________________________________________________________\n","lambda_23 (Lambda)              (None, 25, 25, 256)  0           Block35_3_Conv2d_1x1[0][0]       \n","__________________________________________________________________________________________________\n","add_23 (Add)                    (None, 25, 25, 256)  0           Block35_2_Activation[0][0]       \n","                                                                 lambda_23[0][0]                  \n","__________________________________________________________________________________________________\n","Block35_3_Activation (Activatio (None, 25, 25, 256)  0           add_23[0][0]                     \n","__________________________________________________________________________________________________\n","Block35_4_Branch_2_Conv2d_0a_1x (None, 25, 25, 32)   8192        Block35_3_Activation[0][0]       \n","__________________________________________________________________________________________________\n","Block35_4_Branch_2_Conv2d_0a_1x (None, 25, 25, 32)   96          Block35_4_Branch_2_Conv2d_0a_1x1[\n","__________________________________________________________________________________________________\n","Block35_4_Branch_2_Conv2d_0a_1x (None, 25, 25, 32)   0           Block35_4_Branch_2_Conv2d_0a_1x1_\n","__________________________________________________________________________________________________\n","Block35_4_Branch_1_Conv2d_0a_1x (None, 25, 25, 32)   8192        Block35_3_Activation[0][0]       \n","__________________________________________________________________________________________________\n","Block35_4_Branch_2_Conv2d_0b_3x (None, 25, 25, 32)   9216        Block35_4_Branch_2_Conv2d_0a_1x1_\n","__________________________________________________________________________________________________\n","Block35_4_Branch_1_Conv2d_0a_1x (None, 25, 25, 32)   96          Block35_4_Branch_1_Conv2d_0a_1x1[\n","__________________________________________________________________________________________________\n","Block35_4_Branch_2_Conv2d_0b_3x (None, 25, 25, 32)   96          Block35_4_Branch_2_Conv2d_0b_3x3[\n","__________________________________________________________________________________________________\n","Block35_4_Branch_1_Conv2d_0a_1x (None, 25, 25, 32)   0           Block35_4_Branch_1_Conv2d_0a_1x1_\n","__________________________________________________________________________________________________\n","Block35_4_Branch_2_Conv2d_0b_3x (None, 25, 25, 32)   0           Block35_4_Branch_2_Conv2d_0b_3x3_\n","__________________________________________________________________________________________________\n","Block35_4_Branch_0_Conv2d_1x1 ( (None, 25, 25, 32)   8192        Block35_3_Activation[0][0]       \n","__________________________________________________________________________________________________\n","Block35_4_Branch_1_Conv2d_0b_3x (None, 25, 25, 32)   9216        Block35_4_Branch_1_Conv2d_0a_1x1_\n","__________________________________________________________________________________________________\n","Block35_4_Branch_2_Conv2d_0c_3x (None, 25, 25, 32)   9216        Block35_4_Branch_2_Conv2d_0b_3x3_\n","__________________________________________________________________________________________________\n","Block35_4_Branch_0_Conv2d_1x1_B (None, 25, 25, 32)   96          Block35_4_Branch_0_Conv2d_1x1[0][\n","__________________________________________________________________________________________________\n","Block35_4_Branch_1_Conv2d_0b_3x (None, 25, 25, 32)   96          Block35_4_Branch_1_Conv2d_0b_3x3[\n","__________________________________________________________________________________________________\n","Block35_4_Branch_2_Conv2d_0c_3x (None, 25, 25, 32)   96          Block35_4_Branch_2_Conv2d_0c_3x3[\n","__________________________________________________________________________________________________\n","Block35_4_Branch_0_Conv2d_1x1_A (None, 25, 25, 32)   0           Block35_4_Branch_0_Conv2d_1x1_Bat\n","__________________________________________________________________________________________________\n","Block35_4_Branch_1_Conv2d_0b_3x (None, 25, 25, 32)   0           Block35_4_Branch_1_Conv2d_0b_3x3_\n","__________________________________________________________________________________________________\n","Block35_4_Branch_2_Conv2d_0c_3x (None, 25, 25, 32)   0           Block35_4_Branch_2_Conv2d_0c_3x3_\n","__________________________________________________________________________________________________\n","Block35_4_Concatenate (Concaten (None, 25, 25, 96)   0           Block35_4_Branch_0_Conv2d_1x1_Act\n","                                                                 Block35_4_Branch_1_Conv2d_0b_3x3_\n","                                                                 Block35_4_Branch_2_Conv2d_0c_3x3_\n","__________________________________________________________________________________________________\n","Block35_4_Conv2d_1x1 (Conv2D)   (None, 25, 25, 256)  24832       Block35_4_Concatenate[0][0]      \n","__________________________________________________________________________________________________\n","lambda_24 (Lambda)              (None, 25, 25, 256)  0           Block35_4_Conv2d_1x1[0][0]       \n","__________________________________________________________________________________________________\n","add_24 (Add)                    (None, 25, 25, 256)  0           Block35_3_Activation[0][0]       \n","                                                                 lambda_24[0][0]                  \n","__________________________________________________________________________________________________\n","Block35_4_Activation (Activatio (None, 25, 25, 256)  0           add_24[0][0]                     \n","__________________________________________________________________________________________________\n","Block35_5_Branch_2_Conv2d_0a_1x (None, 25, 25, 32)   8192        Block35_4_Activation[0][0]       \n","__________________________________________________________________________________________________\n","Block35_5_Branch_2_Conv2d_0a_1x (None, 25, 25, 32)   96          Block35_5_Branch_2_Conv2d_0a_1x1[\n","__________________________________________________________________________________________________\n","Block35_5_Branch_2_Conv2d_0a_1x (None, 25, 25, 32)   0           Block35_5_Branch_2_Conv2d_0a_1x1_\n","__________________________________________________________________________________________________\n","Block35_5_Branch_1_Conv2d_0a_1x (None, 25, 25, 32)   8192        Block35_4_Activation[0][0]       \n","__________________________________________________________________________________________________\n","Block35_5_Branch_2_Conv2d_0b_3x (None, 25, 25, 32)   9216        Block35_5_Branch_2_Conv2d_0a_1x1_\n","__________________________________________________________________________________________________\n","Block35_5_Branch_1_Conv2d_0a_1x (None, 25, 25, 32)   96          Block35_5_Branch_1_Conv2d_0a_1x1[\n","__________________________________________________________________________________________________\n","Block35_5_Branch_2_Conv2d_0b_3x (None, 25, 25, 32)   96          Block35_5_Branch_2_Conv2d_0b_3x3[\n","__________________________________________________________________________________________________\n","Block35_5_Branch_1_Conv2d_0a_1x (None, 25, 25, 32)   0           Block35_5_Branch_1_Conv2d_0a_1x1_\n","__________________________________________________________________________________________________\n","Block35_5_Branch_2_Conv2d_0b_3x (None, 25, 25, 32)   0           Block35_5_Branch_2_Conv2d_0b_3x3_\n","__________________________________________________________________________________________________\n","Block35_5_Branch_0_Conv2d_1x1 ( (None, 25, 25, 32)   8192        Block35_4_Activation[0][0]       \n","__________________________________________________________________________________________________\n","Block35_5_Branch_1_Conv2d_0b_3x (None, 25, 25, 32)   9216        Block35_5_Branch_1_Conv2d_0a_1x1_\n","__________________________________________________________________________________________________\n","Block35_5_Branch_2_Conv2d_0c_3x (None, 25, 25, 32)   9216        Block35_5_Branch_2_Conv2d_0b_3x3_\n","__________________________________________________________________________________________________\n","Block35_5_Branch_0_Conv2d_1x1_B (None, 25, 25, 32)   96          Block35_5_Branch_0_Conv2d_1x1[0][\n","__________________________________________________________________________________________________\n","Block35_5_Branch_1_Conv2d_0b_3x (None, 25, 25, 32)   96          Block35_5_Branch_1_Conv2d_0b_3x3[\n","__________________________________________________________________________________________________\n","Block35_5_Branch_2_Conv2d_0c_3x (None, 25, 25, 32)   96          Block35_5_Branch_2_Conv2d_0c_3x3[\n","__________________________________________________________________________________________________\n","Block35_5_Branch_0_Conv2d_1x1_A (None, 25, 25, 32)   0           Block35_5_Branch_0_Conv2d_1x1_Bat\n","__________________________________________________________________________________________________\n","Block35_5_Branch_1_Conv2d_0b_3x (None, 25, 25, 32)   0           Block35_5_Branch_1_Conv2d_0b_3x3_\n","__________________________________________________________________________________________________\n","Block35_5_Branch_2_Conv2d_0c_3x (None, 25, 25, 32)   0           Block35_5_Branch_2_Conv2d_0c_3x3_\n","__________________________________________________________________________________________________\n","Block35_5_Concatenate (Concaten (None, 25, 25, 96)   0           Block35_5_Branch_0_Conv2d_1x1_Act\n","                                                                 Block35_5_Branch_1_Conv2d_0b_3x3_\n","                                                                 Block35_5_Branch_2_Conv2d_0c_3x3_\n","__________________________________________________________________________________________________\n","Block35_5_Conv2d_1x1 (Conv2D)   (None, 25, 25, 256)  24832       Block35_5_Concatenate[0][0]      \n","__________________________________________________________________________________________________\n","lambda_25 (Lambda)              (None, 25, 25, 256)  0           Block35_5_Conv2d_1x1[0][0]       \n","__________________________________________________________________________________________________\n","add_25 (Add)                    (None, 25, 25, 256)  0           Block35_4_Activation[0][0]       \n","                                                                 lambda_25[0][0]                  \n","__________________________________________________________________________________________________\n","Block35_5_Activation (Activatio (None, 25, 25, 256)  0           add_25[0][0]                     \n","__________________________________________________________________________________________________\n","Mixed_6a_Branch_1_Conv2d_0a_1x1 (None, 25, 25, 192)  49152       Block35_5_Activation[0][0]       \n","__________________________________________________________________________________________________\n","Mixed_6a_Branch_1_Conv2d_0a_1x1 (None, 25, 25, 192)  576         Mixed_6a_Branch_1_Conv2d_0a_1x1[0\n","__________________________________________________________________________________________________\n","Mixed_6a_Branch_1_Conv2d_0a_1x1 (None, 25, 25, 192)  0           Mixed_6a_Branch_1_Conv2d_0a_1x1_B\n","__________________________________________________________________________________________________\n","Mixed_6a_Branch_1_Conv2d_0b_3x3 (None, 25, 25, 192)  331776      Mixed_6a_Branch_1_Conv2d_0a_1x1_A\n","__________________________________________________________________________________________________\n","Mixed_6a_Branch_1_Conv2d_0b_3x3 (None, 25, 25, 192)  576         Mixed_6a_Branch_1_Conv2d_0b_3x3[0\n","__________________________________________________________________________________________________\n","Mixed_6a_Branch_1_Conv2d_0b_3x3 (None, 25, 25, 192)  0           Mixed_6a_Branch_1_Conv2d_0b_3x3_B\n","__________________________________________________________________________________________________\n","Mixed_6a_Branch_0_Conv2d_1a_3x3 (None, 12, 12, 384)  884736      Block35_5_Activation[0][0]       \n","__________________________________________________________________________________________________\n","Mixed_6a_Branch_1_Conv2d_1a_3x3 (None, 12, 12, 256)  442368      Mixed_6a_Branch_1_Conv2d_0b_3x3_A\n","__________________________________________________________________________________________________\n","Mixed_6a_Branch_0_Conv2d_1a_3x3 (None, 12, 12, 384)  1152        Mixed_6a_Branch_0_Conv2d_1a_3x3[0\n","__________________________________________________________________________________________________\n","Mixed_6a_Branch_1_Conv2d_1a_3x3 (None, 12, 12, 256)  768         Mixed_6a_Branch_1_Conv2d_1a_3x3[0\n","__________________________________________________________________________________________________\n","Mixed_6a_Branch_0_Conv2d_1a_3x3 (None, 12, 12, 384)  0           Mixed_6a_Branch_0_Conv2d_1a_3x3_B\n","__________________________________________________________________________________________________\n","Mixed_6a_Branch_1_Conv2d_1a_3x3 (None, 12, 12, 256)  0           Mixed_6a_Branch_1_Conv2d_1a_3x3_B\n","__________________________________________________________________________________________________\n","Mixed_6a_Branch_2_MaxPool_1a_3x (None, 12, 12, 256)  0           Block35_5_Activation[0][0]       \n","__________________________________________________________________________________________________\n","Mixed_6a (Concatenate)          (None, 12, 12, 896)  0           Mixed_6a_Branch_0_Conv2d_1a_3x3_A\n","                                                                 Mixed_6a_Branch_1_Conv2d_1a_3x3_A\n","                                                                 Mixed_6a_Branch_2_MaxPool_1a_3x3[\n","__________________________________________________________________________________________________\n","Block17_1_Branch_1_Conv2d_0a_1x (None, 12, 12, 128)  114688      Mixed_6a[0][0]                   \n","__________________________________________________________________________________________________\n","Block17_1_Branch_1_Conv2d_0a_1x (None, 12, 12, 128)  384         Block17_1_Branch_1_Conv2d_0a_1x1[\n","__________________________________________________________________________________________________\n","Block17_1_Branch_1_Conv2d_0a_1x (None, 12, 12, 128)  0           Block17_1_Branch_1_Conv2d_0a_1x1_\n","__________________________________________________________________________________________________\n","Block17_1_Branch_1_Conv2d_0b_1x (None, 12, 12, 128)  114688      Block17_1_Branch_1_Conv2d_0a_1x1_\n","__________________________________________________________________________________________________\n","Block17_1_Branch_1_Conv2d_0b_1x (None, 12, 12, 128)  384         Block17_1_Branch_1_Conv2d_0b_1x7[\n","__________________________________________________________________________________________________\n","Block17_1_Branch_1_Conv2d_0b_1x (None, 12, 12, 128)  0           Block17_1_Branch_1_Conv2d_0b_1x7_\n","__________________________________________________________________________________________________\n","Block17_1_Branch_0_Conv2d_1x1 ( (None, 12, 12, 128)  114688      Mixed_6a[0][0]                   \n","__________________________________________________________________________________________________\n","Block17_1_Branch_1_Conv2d_0c_7x (None, 12, 12, 128)  114688      Block17_1_Branch_1_Conv2d_0b_1x7_\n","__________________________________________________________________________________________________\n","Block17_1_Branch_0_Conv2d_1x1_B (None, 12, 12, 128)  384         Block17_1_Branch_0_Conv2d_1x1[0][\n","__________________________________________________________________________________________________\n","Block17_1_Branch_1_Conv2d_0c_7x (None, 12, 12, 128)  384         Block17_1_Branch_1_Conv2d_0c_7x1[\n","__________________________________________________________________________________________________\n","Block17_1_Branch_0_Conv2d_1x1_A (None, 12, 12, 128)  0           Block17_1_Branch_0_Conv2d_1x1_Bat\n","__________________________________________________________________________________________________\n","Block17_1_Branch_1_Conv2d_0c_7x (None, 12, 12, 128)  0           Block17_1_Branch_1_Conv2d_0c_7x1_\n","__________________________________________________________________________________________________\n","Block17_1_Concatenate (Concaten (None, 12, 12, 256)  0           Block17_1_Branch_0_Conv2d_1x1_Act\n","                                                                 Block17_1_Branch_1_Conv2d_0c_7x1_\n","__________________________________________________________________________________________________\n","Block17_1_Conv2d_1x1 (Conv2D)   (None, 12, 12, 896)  230272      Block17_1_Concatenate[0][0]      \n","__________________________________________________________________________________________________\n","lambda_26 (Lambda)              (None, 12, 12, 896)  0           Block17_1_Conv2d_1x1[0][0]       \n","__________________________________________________________________________________________________\n","add_26 (Add)                    (None, 12, 12, 896)  0           Mixed_6a[0][0]                   \n","                                                                 lambda_26[0][0]                  \n","__________________________________________________________________________________________________\n","Block17_1_Activation (Activatio (None, 12, 12, 896)  0           add_26[0][0]                     \n","__________________________________________________________________________________________________\n","Block17_2_Branch_1_Conv2d_0a_1x (None, 12, 12, 128)  114688      Block17_1_Activation[0][0]       \n","__________________________________________________________________________________________________\n","Block17_2_Branch_1_Conv2d_0a_1x (None, 12, 12, 128)  384         Block17_2_Branch_1_Conv2d_0a_1x1[\n","__________________________________________________________________________________________________\n","Block17_2_Branch_1_Conv2d_0a_1x (None, 12, 12, 128)  0           Block17_2_Branch_1_Conv2d_0a_1x1_\n","__________________________________________________________________________________________________\n","Block17_2_Branch_1_Conv2d_0b_1x (None, 12, 12, 128)  114688      Block17_2_Branch_1_Conv2d_0a_1x1_\n","__________________________________________________________________________________________________\n","Block17_2_Branch_1_Conv2d_0b_1x (None, 12, 12, 128)  384         Block17_2_Branch_1_Conv2d_0b_1x7[\n","__________________________________________________________________________________________________\n","Block17_2_Branch_1_Conv2d_0b_1x (None, 12, 12, 128)  0           Block17_2_Branch_1_Conv2d_0b_1x7_\n","__________________________________________________________________________________________________\n","Block17_2_Branch_0_Conv2d_1x1 ( (None, 12, 12, 128)  114688      Block17_1_Activation[0][0]       \n","__________________________________________________________________________________________________\n","Block17_2_Branch_1_Conv2d_0c_7x (None, 12, 12, 128)  114688      Block17_2_Branch_1_Conv2d_0b_1x7_\n","__________________________________________________________________________________________________\n","Block17_2_Branch_0_Conv2d_1x1_B (None, 12, 12, 128)  384         Block17_2_Branch_0_Conv2d_1x1[0][\n","__________________________________________________________________________________________________\n","Block17_2_Branch_1_Conv2d_0c_7x (None, 12, 12, 128)  384         Block17_2_Branch_1_Conv2d_0c_7x1[\n","__________________________________________________________________________________________________\n","Block17_2_Branch_0_Conv2d_1x1_A (None, 12, 12, 128)  0           Block17_2_Branch_0_Conv2d_1x1_Bat\n","__________________________________________________________________________________________________\n","Block17_2_Branch_1_Conv2d_0c_7x (None, 12, 12, 128)  0           Block17_2_Branch_1_Conv2d_0c_7x1_\n","__________________________________________________________________________________________________\n","Block17_2_Concatenate (Concaten (None, 12, 12, 256)  0           Block17_2_Branch_0_Conv2d_1x1_Act\n","                                                                 Block17_2_Branch_1_Conv2d_0c_7x1_\n","__________________________________________________________________________________________________\n","Block17_2_Conv2d_1x1 (Conv2D)   (None, 12, 12, 896)  230272      Block17_2_Concatenate[0][0]      \n","__________________________________________________________________________________________________\n","lambda_27 (Lambda)              (None, 12, 12, 896)  0           Block17_2_Conv2d_1x1[0][0]       \n","__________________________________________________________________________________________________\n","add_27 (Add)                    (None, 12, 12, 896)  0           Block17_1_Activation[0][0]       \n","                                                                 lambda_27[0][0]                  \n","__________________________________________________________________________________________________\n","Block17_2_Activation (Activatio (None, 12, 12, 896)  0           add_27[0][0]                     \n","__________________________________________________________________________________________________\n","Block17_3_Branch_1_Conv2d_0a_1x (None, 12, 12, 128)  114688      Block17_2_Activation[0][0]       \n","__________________________________________________________________________________________________\n","Block17_3_Branch_1_Conv2d_0a_1x (None, 12, 12, 128)  384         Block17_3_Branch_1_Conv2d_0a_1x1[\n","__________________________________________________________________________________________________\n","Block17_3_Branch_1_Conv2d_0a_1x (None, 12, 12, 128)  0           Block17_3_Branch_1_Conv2d_0a_1x1_\n","__________________________________________________________________________________________________\n","Block17_3_Branch_1_Conv2d_0b_1x (None, 12, 12, 128)  114688      Block17_3_Branch_1_Conv2d_0a_1x1_\n","__________________________________________________________________________________________________\n","Block17_3_Branch_1_Conv2d_0b_1x (None, 12, 12, 128)  384         Block17_3_Branch_1_Conv2d_0b_1x7[\n","__________________________________________________________________________________________________\n","Block17_3_Branch_1_Conv2d_0b_1x (None, 12, 12, 128)  0           Block17_3_Branch_1_Conv2d_0b_1x7_\n","__________________________________________________________________________________________________\n","Block17_3_Branch_0_Conv2d_1x1 ( (None, 12, 12, 128)  114688      Block17_2_Activation[0][0]       \n","__________________________________________________________________________________________________\n","Block17_3_Branch_1_Conv2d_0c_7x (None, 12, 12, 128)  114688      Block17_3_Branch_1_Conv2d_0b_1x7_\n","__________________________________________________________________________________________________\n","Block17_3_Branch_0_Conv2d_1x1_B (None, 12, 12, 128)  384         Block17_3_Branch_0_Conv2d_1x1[0][\n","__________________________________________________________________________________________________\n","Block17_3_Branch_1_Conv2d_0c_7x (None, 12, 12, 128)  384         Block17_3_Branch_1_Conv2d_0c_7x1[\n","__________________________________________________________________________________________________\n","Block17_3_Branch_0_Conv2d_1x1_A (None, 12, 12, 128)  0           Block17_3_Branch_0_Conv2d_1x1_Bat\n","__________________________________________________________________________________________________\n","Block17_3_Branch_1_Conv2d_0c_7x (None, 12, 12, 128)  0           Block17_3_Branch_1_Conv2d_0c_7x1_\n","__________________________________________________________________________________________________\n","Block17_3_Concatenate (Concaten (None, 12, 12, 256)  0           Block17_3_Branch_0_Conv2d_1x1_Act\n","                                                                 Block17_3_Branch_1_Conv2d_0c_7x1_\n","__________________________________________________________________________________________________\n","Block17_3_Conv2d_1x1 (Conv2D)   (None, 12, 12, 896)  230272      Block17_3_Concatenate[0][0]      \n","__________________________________________________________________________________________________\n","lambda_28 (Lambda)              (None, 12, 12, 896)  0           Block17_3_Conv2d_1x1[0][0]       \n","__________________________________________________________________________________________________\n","add_28 (Add)                    (None, 12, 12, 896)  0           Block17_2_Activation[0][0]       \n","                                                                 lambda_28[0][0]                  \n","__________________________________________________________________________________________________\n","Block17_3_Activation (Activatio (None, 12, 12, 896)  0           add_28[0][0]                     \n","__________________________________________________________________________________________________\n","Block17_4_Branch_1_Conv2d_0a_1x (None, 12, 12, 128)  114688      Block17_3_Activation[0][0]       \n","__________________________________________________________________________________________________\n","Block17_4_Branch_1_Conv2d_0a_1x (None, 12, 12, 128)  384         Block17_4_Branch_1_Conv2d_0a_1x1[\n","__________________________________________________________________________________________________\n","Block17_4_Branch_1_Conv2d_0a_1x (None, 12, 12, 128)  0           Block17_4_Branch_1_Conv2d_0a_1x1_\n","__________________________________________________________________________________________________\n","Block17_4_Branch_1_Conv2d_0b_1x (None, 12, 12, 128)  114688      Block17_4_Branch_1_Conv2d_0a_1x1_\n","__________________________________________________________________________________________________\n","Block17_4_Branch_1_Conv2d_0b_1x (None, 12, 12, 128)  384         Block17_4_Branch_1_Conv2d_0b_1x7[\n","__________________________________________________________________________________________________\n","Block17_4_Branch_1_Conv2d_0b_1x (None, 12, 12, 128)  0           Block17_4_Branch_1_Conv2d_0b_1x7_\n","__________________________________________________________________________________________________\n","Block17_4_Branch_0_Conv2d_1x1 ( (None, 12, 12, 128)  114688      Block17_3_Activation[0][0]       \n","__________________________________________________________________________________________________\n","Block17_4_Branch_1_Conv2d_0c_7x (None, 12, 12, 128)  114688      Block17_4_Branch_1_Conv2d_0b_1x7_\n","__________________________________________________________________________________________________\n","Block17_4_Branch_0_Conv2d_1x1_B (None, 12, 12, 128)  384         Block17_4_Branch_0_Conv2d_1x1[0][\n","__________________________________________________________________________________________________\n","Block17_4_Branch_1_Conv2d_0c_7x (None, 12, 12, 128)  384         Block17_4_Branch_1_Conv2d_0c_7x1[\n","__________________________________________________________________________________________________\n","Block17_4_Branch_0_Conv2d_1x1_A (None, 12, 12, 128)  0           Block17_4_Branch_0_Conv2d_1x1_Bat\n","__________________________________________________________________________________________________\n","Block17_4_Branch_1_Conv2d_0c_7x (None, 12, 12, 128)  0           Block17_4_Branch_1_Conv2d_0c_7x1_\n","__________________________________________________________________________________________________\n","Block17_4_Concatenate (Concaten (None, 12, 12, 256)  0           Block17_4_Branch_0_Conv2d_1x1_Act\n","                                                                 Block17_4_Branch_1_Conv2d_0c_7x1_\n","__________________________________________________________________________________________________\n","Block17_4_Conv2d_1x1 (Conv2D)   (None, 12, 12, 896)  230272      Block17_4_Concatenate[0][0]      \n","__________________________________________________________________________________________________\n","lambda_29 (Lambda)              (None, 12, 12, 896)  0           Block17_4_Conv2d_1x1[0][0]       \n","__________________________________________________________________________________________________\n","add_29 (Add)                    (None, 12, 12, 896)  0           Block17_3_Activation[0][0]       \n","                                                                 lambda_29[0][0]                  \n","__________________________________________________________________________________________________\n","Block17_4_Activation (Activatio (None, 12, 12, 896)  0           add_29[0][0]                     \n","__________________________________________________________________________________________________\n","Block17_5_Branch_1_Conv2d_0a_1x (None, 12, 12, 128)  114688      Block17_4_Activation[0][0]       \n","__________________________________________________________________________________________________\n","Block17_5_Branch_1_Conv2d_0a_1x (None, 12, 12, 128)  384         Block17_5_Branch_1_Conv2d_0a_1x1[\n","__________________________________________________________________________________________________\n","Block17_5_Branch_1_Conv2d_0a_1x (None, 12, 12, 128)  0           Block17_5_Branch_1_Conv2d_0a_1x1_\n","__________________________________________________________________________________________________\n","Block17_5_Branch_1_Conv2d_0b_1x (None, 12, 12, 128)  114688      Block17_5_Branch_1_Conv2d_0a_1x1_\n","__________________________________________________________________________________________________\n","Block17_5_Branch_1_Conv2d_0b_1x (None, 12, 12, 128)  384         Block17_5_Branch_1_Conv2d_0b_1x7[\n","__________________________________________________________________________________________________\n","Block17_5_Branch_1_Conv2d_0b_1x (None, 12, 12, 128)  0           Block17_5_Branch_1_Conv2d_0b_1x7_\n","__________________________________________________________________________________________________\n","Block17_5_Branch_0_Conv2d_1x1 ( (None, 12, 12, 128)  114688      Block17_4_Activation[0][0]       \n","__________________________________________________________________________________________________\n","Block17_5_Branch_1_Conv2d_0c_7x (None, 12, 12, 128)  114688      Block17_5_Branch_1_Conv2d_0b_1x7_\n","__________________________________________________________________________________________________\n","Block17_5_Branch_0_Conv2d_1x1_B (None, 12, 12, 128)  384         Block17_5_Branch_0_Conv2d_1x1[0][\n","__________________________________________________________________________________________________\n","Block17_5_Branch_1_Conv2d_0c_7x (None, 12, 12, 128)  384         Block17_5_Branch_1_Conv2d_0c_7x1[\n","__________________________________________________________________________________________________\n","Block17_5_Branch_0_Conv2d_1x1_A (None, 12, 12, 128)  0           Block17_5_Branch_0_Conv2d_1x1_Bat\n","__________________________________________________________________________________________________\n","Block17_5_Branch_1_Conv2d_0c_7x (None, 12, 12, 128)  0           Block17_5_Branch_1_Conv2d_0c_7x1_\n","__________________________________________________________________________________________________\n","Block17_5_Concatenate (Concaten (None, 12, 12, 256)  0           Block17_5_Branch_0_Conv2d_1x1_Act\n","                                                                 Block17_5_Branch_1_Conv2d_0c_7x1_\n","__________________________________________________________________________________________________\n","Block17_5_Conv2d_1x1 (Conv2D)   (None, 12, 12, 896)  230272      Block17_5_Concatenate[0][0]      \n","__________________________________________________________________________________________________\n","lambda_30 (Lambda)              (None, 12, 12, 896)  0           Block17_5_Conv2d_1x1[0][0]       \n","__________________________________________________________________________________________________\n","add_30 (Add)                    (None, 12, 12, 896)  0           Block17_4_Activation[0][0]       \n","                                                                 lambda_30[0][0]                  \n","__________________________________________________________________________________________________\n","Block17_5_Activation (Activatio (None, 12, 12, 896)  0           add_30[0][0]                     \n","__________________________________________________________________________________________________\n","Block17_6_Branch_1_Conv2d_0a_1x (None, 12, 12, 128)  114688      Block17_5_Activation[0][0]       \n","__________________________________________________________________________________________________\n","Block17_6_Branch_1_Conv2d_0a_1x (None, 12, 12, 128)  384         Block17_6_Branch_1_Conv2d_0a_1x1[\n","__________________________________________________________________________________________________\n","Block17_6_Branch_1_Conv2d_0a_1x (None, 12, 12, 128)  0           Block17_6_Branch_1_Conv2d_0a_1x1_\n","__________________________________________________________________________________________________\n","Block17_6_Branch_1_Conv2d_0b_1x (None, 12, 12, 128)  114688      Block17_6_Branch_1_Conv2d_0a_1x1_\n","__________________________________________________________________________________________________\n","Block17_6_Branch_1_Conv2d_0b_1x (None, 12, 12, 128)  384         Block17_6_Branch_1_Conv2d_0b_1x7[\n","__________________________________________________________________________________________________\n","Block17_6_Branch_1_Conv2d_0b_1x (None, 12, 12, 128)  0           Block17_6_Branch_1_Conv2d_0b_1x7_\n","__________________________________________________________________________________________________\n","Block17_6_Branch_0_Conv2d_1x1 ( (None, 12, 12, 128)  114688      Block17_5_Activation[0][0]       \n","__________________________________________________________________________________________________\n","Block17_6_Branch_1_Conv2d_0c_7x (None, 12, 12, 128)  114688      Block17_6_Branch_1_Conv2d_0b_1x7_\n","__________________________________________________________________________________________________\n","Block17_6_Branch_0_Conv2d_1x1_B (None, 12, 12, 128)  384         Block17_6_Branch_0_Conv2d_1x1[0][\n","__________________________________________________________________________________________________\n","Block17_6_Branch_1_Conv2d_0c_7x (None, 12, 12, 128)  384         Block17_6_Branch_1_Conv2d_0c_7x1[\n","__________________________________________________________________________________________________\n","Block17_6_Branch_0_Conv2d_1x1_A (None, 12, 12, 128)  0           Block17_6_Branch_0_Conv2d_1x1_Bat\n","__________________________________________________________________________________________________\n","Block17_6_Branch_1_Conv2d_0c_7x (None, 12, 12, 128)  0           Block17_6_Branch_1_Conv2d_0c_7x1_\n","__________________________________________________________________________________________________\n","Block17_6_Concatenate (Concaten (None, 12, 12, 256)  0           Block17_6_Branch_0_Conv2d_1x1_Act\n","                                                                 Block17_6_Branch_1_Conv2d_0c_7x1_\n","__________________________________________________________________________________________________\n","Block17_6_Conv2d_1x1 (Conv2D)   (None, 12, 12, 896)  230272      Block17_6_Concatenate[0][0]      \n","__________________________________________________________________________________________________\n","lambda_31 (Lambda)              (None, 12, 12, 896)  0           Block17_6_Conv2d_1x1[0][0]       \n","__________________________________________________________________________________________________\n","add_31 (Add)                    (None, 12, 12, 896)  0           Block17_5_Activation[0][0]       \n","                                                                 lambda_31[0][0]                  \n","__________________________________________________________________________________________________\n","Block17_6_Activation (Activatio (None, 12, 12, 896)  0           add_31[0][0]                     \n","__________________________________________________________________________________________________\n","Block17_7_Branch_1_Conv2d_0a_1x (None, 12, 12, 128)  114688      Block17_6_Activation[0][0]       \n","__________________________________________________________________________________________________\n","Block17_7_Branch_1_Conv2d_0a_1x (None, 12, 12, 128)  384         Block17_7_Branch_1_Conv2d_0a_1x1[\n","__________________________________________________________________________________________________\n","Block17_7_Branch_1_Conv2d_0a_1x (None, 12, 12, 128)  0           Block17_7_Branch_1_Conv2d_0a_1x1_\n","__________________________________________________________________________________________________\n","Block17_7_Branch_1_Conv2d_0b_1x (None, 12, 12, 128)  114688      Block17_7_Branch_1_Conv2d_0a_1x1_\n","__________________________________________________________________________________________________\n","Block17_7_Branch_1_Conv2d_0b_1x (None, 12, 12, 128)  384         Block17_7_Branch_1_Conv2d_0b_1x7[\n","__________________________________________________________________________________________________\n","Block17_7_Branch_1_Conv2d_0b_1x (None, 12, 12, 128)  0           Block17_7_Branch_1_Conv2d_0b_1x7_\n","__________________________________________________________________________________________________\n","Block17_7_Branch_0_Conv2d_1x1 ( (None, 12, 12, 128)  114688      Block17_6_Activation[0][0]       \n","__________________________________________________________________________________________________\n","Block17_7_Branch_1_Conv2d_0c_7x (None, 12, 12, 128)  114688      Block17_7_Branch_1_Conv2d_0b_1x7_\n","__________________________________________________________________________________________________\n","Block17_7_Branch_0_Conv2d_1x1_B (None, 12, 12, 128)  384         Block17_7_Branch_0_Conv2d_1x1[0][\n","__________________________________________________________________________________________________\n","Block17_7_Branch_1_Conv2d_0c_7x (None, 12, 12, 128)  384         Block17_7_Branch_1_Conv2d_0c_7x1[\n","__________________________________________________________________________________________________\n","Block17_7_Branch_0_Conv2d_1x1_A (None, 12, 12, 128)  0           Block17_7_Branch_0_Conv2d_1x1_Bat\n","__________________________________________________________________________________________________\n","Block17_7_Branch_1_Conv2d_0c_7x (None, 12, 12, 128)  0           Block17_7_Branch_1_Conv2d_0c_7x1_\n","__________________________________________________________________________________________________\n","Block17_7_Concatenate (Concaten (None, 12, 12, 256)  0           Block17_7_Branch_0_Conv2d_1x1_Act\n","                                                                 Block17_7_Branch_1_Conv2d_0c_7x1_\n","__________________________________________________________________________________________________\n","Block17_7_Conv2d_1x1 (Conv2D)   (None, 12, 12, 896)  230272      Block17_7_Concatenate[0][0]      \n","__________________________________________________________________________________________________\n","lambda_32 (Lambda)              (None, 12, 12, 896)  0           Block17_7_Conv2d_1x1[0][0]       \n","__________________________________________________________________________________________________\n","add_32 (Add)                    (None, 12, 12, 896)  0           Block17_6_Activation[0][0]       \n","                                                                 lambda_32[0][0]                  \n","__________________________________________________________________________________________________\n","Block17_7_Activation (Activatio (None, 12, 12, 896)  0           add_32[0][0]                     \n","__________________________________________________________________________________________________\n","Block17_8_Branch_1_Conv2d_0a_1x (None, 12, 12, 128)  114688      Block17_7_Activation[0][0]       \n","__________________________________________________________________________________________________\n","Block17_8_Branch_1_Conv2d_0a_1x (None, 12, 12, 128)  384         Block17_8_Branch_1_Conv2d_0a_1x1[\n","__________________________________________________________________________________________________\n","Block17_8_Branch_1_Conv2d_0a_1x (None, 12, 12, 128)  0           Block17_8_Branch_1_Conv2d_0a_1x1_\n","__________________________________________________________________________________________________\n","Block17_8_Branch_1_Conv2d_0b_1x (None, 12, 12, 128)  114688      Block17_8_Branch_1_Conv2d_0a_1x1_\n","__________________________________________________________________________________________________\n","Block17_8_Branch_1_Conv2d_0b_1x (None, 12, 12, 128)  384         Block17_8_Branch_1_Conv2d_0b_1x7[\n","__________________________________________________________________________________________________\n","Block17_8_Branch_1_Conv2d_0b_1x (None, 12, 12, 128)  0           Block17_8_Branch_1_Conv2d_0b_1x7_\n","__________________________________________________________________________________________________\n","Block17_8_Branch_0_Conv2d_1x1 ( (None, 12, 12, 128)  114688      Block17_7_Activation[0][0]       \n","__________________________________________________________________________________________________\n","Block17_8_Branch_1_Conv2d_0c_7x (None, 12, 12, 128)  114688      Block17_8_Branch_1_Conv2d_0b_1x7_\n","__________________________________________________________________________________________________\n","Block17_8_Branch_0_Conv2d_1x1_B (None, 12, 12, 128)  384         Block17_8_Branch_0_Conv2d_1x1[0][\n","__________________________________________________________________________________________________\n","Block17_8_Branch_1_Conv2d_0c_7x (None, 12, 12, 128)  384         Block17_8_Branch_1_Conv2d_0c_7x1[\n","__________________________________________________________________________________________________\n","Block17_8_Branch_0_Conv2d_1x1_A (None, 12, 12, 128)  0           Block17_8_Branch_0_Conv2d_1x1_Bat\n","__________________________________________________________________________________________________\n","Block17_8_Branch_1_Conv2d_0c_7x (None, 12, 12, 128)  0           Block17_8_Branch_1_Conv2d_0c_7x1_\n","__________________________________________________________________________________________________\n","Block17_8_Concatenate (Concaten (None, 12, 12, 256)  0           Block17_8_Branch_0_Conv2d_1x1_Act\n","                                                                 Block17_8_Branch_1_Conv2d_0c_7x1_\n","__________________________________________________________________________________________________\n","Block17_8_Conv2d_1x1 (Conv2D)   (None, 12, 12, 896)  230272      Block17_8_Concatenate[0][0]      \n","__________________________________________________________________________________________________\n","lambda_33 (Lambda)              (None, 12, 12, 896)  0           Block17_8_Conv2d_1x1[0][0]       \n","__________________________________________________________________________________________________\n","add_33 (Add)                    (None, 12, 12, 896)  0           Block17_7_Activation[0][0]       \n","                                                                 lambda_33[0][0]                  \n","__________________________________________________________________________________________________\n","Block17_8_Activation (Activatio (None, 12, 12, 896)  0           add_33[0][0]                     \n","__________________________________________________________________________________________________\n","Block17_9_Branch_1_Conv2d_0a_1x (None, 12, 12, 128)  114688      Block17_8_Activation[0][0]       \n","__________________________________________________________________________________________________\n","Block17_9_Branch_1_Conv2d_0a_1x (None, 12, 12, 128)  384         Block17_9_Branch_1_Conv2d_0a_1x1[\n","__________________________________________________________________________________________________\n","Block17_9_Branch_1_Conv2d_0a_1x (None, 12, 12, 128)  0           Block17_9_Branch_1_Conv2d_0a_1x1_\n","__________________________________________________________________________________________________\n","Block17_9_Branch_1_Conv2d_0b_1x (None, 12, 12, 128)  114688      Block17_9_Branch_1_Conv2d_0a_1x1_\n","__________________________________________________________________________________________________\n","Block17_9_Branch_1_Conv2d_0b_1x (None, 12, 12, 128)  384         Block17_9_Branch_1_Conv2d_0b_1x7[\n","__________________________________________________________________________________________________\n","Block17_9_Branch_1_Conv2d_0b_1x (None, 12, 12, 128)  0           Block17_9_Branch_1_Conv2d_0b_1x7_\n","__________________________________________________________________________________________________\n","Block17_9_Branch_0_Conv2d_1x1 ( (None, 12, 12, 128)  114688      Block17_8_Activation[0][0]       \n","__________________________________________________________________________________________________\n","Block17_9_Branch_1_Conv2d_0c_7x (None, 12, 12, 128)  114688      Block17_9_Branch_1_Conv2d_0b_1x7_\n","__________________________________________________________________________________________________\n","Block17_9_Branch_0_Conv2d_1x1_B (None, 12, 12, 128)  384         Block17_9_Branch_0_Conv2d_1x1[0][\n","__________________________________________________________________________________________________\n","Block17_9_Branch_1_Conv2d_0c_7x (None, 12, 12, 128)  384         Block17_9_Branch_1_Conv2d_0c_7x1[\n","__________________________________________________________________________________________________\n","Block17_9_Branch_0_Conv2d_1x1_A (None, 12, 12, 128)  0           Block17_9_Branch_0_Conv2d_1x1_Bat\n","__________________________________________________________________________________________________\n","Block17_9_Branch_1_Conv2d_0c_7x (None, 12, 12, 128)  0           Block17_9_Branch_1_Conv2d_0c_7x1_\n","__________________________________________________________________________________________________\n","Block17_9_Concatenate (Concaten (None, 12, 12, 256)  0           Block17_9_Branch_0_Conv2d_1x1_Act\n","                                                                 Block17_9_Branch_1_Conv2d_0c_7x1_\n","__________________________________________________________________________________________________\n","Block17_9_Conv2d_1x1 (Conv2D)   (None, 12, 12, 896)  230272      Block17_9_Concatenate[0][0]      \n","__________________________________________________________________________________________________\n","lambda_34 (Lambda)              (None, 12, 12, 896)  0           Block17_9_Conv2d_1x1[0][0]       \n","__________________________________________________________________________________________________\n","add_34 (Add)                    (None, 12, 12, 896)  0           Block17_8_Activation[0][0]       \n","                                                                 lambda_34[0][0]                  \n","__________________________________________________________________________________________________\n","Block17_9_Activation (Activatio (None, 12, 12, 896)  0           add_34[0][0]                     \n","__________________________________________________________________________________________________\n","Block17_10_Branch_1_Conv2d_0a_1 (None, 12, 12, 128)  114688      Block17_9_Activation[0][0]       \n","__________________________________________________________________________________________________\n","Block17_10_Branch_1_Conv2d_0a_1 (None, 12, 12, 128)  384         Block17_10_Branch_1_Conv2d_0a_1x1\n","__________________________________________________________________________________________________\n","Block17_10_Branch_1_Conv2d_0a_1 (None, 12, 12, 128)  0           Block17_10_Branch_1_Conv2d_0a_1x1\n","__________________________________________________________________________________________________\n","Block17_10_Branch_1_Conv2d_0b_1 (None, 12, 12, 128)  114688      Block17_10_Branch_1_Conv2d_0a_1x1\n","__________________________________________________________________________________________________\n","Block17_10_Branch_1_Conv2d_0b_1 (None, 12, 12, 128)  384         Block17_10_Branch_1_Conv2d_0b_1x7\n","__________________________________________________________________________________________________\n","Block17_10_Branch_1_Conv2d_0b_1 (None, 12, 12, 128)  0           Block17_10_Branch_1_Conv2d_0b_1x7\n","__________________________________________________________________________________________________\n","Block17_10_Branch_0_Conv2d_1x1  (None, 12, 12, 128)  114688      Block17_9_Activation[0][0]       \n","__________________________________________________________________________________________________\n","Block17_10_Branch_1_Conv2d_0c_7 (None, 12, 12, 128)  114688      Block17_10_Branch_1_Conv2d_0b_1x7\n","__________________________________________________________________________________________________\n","Block17_10_Branch_0_Conv2d_1x1_ (None, 12, 12, 128)  384         Block17_10_Branch_0_Conv2d_1x1[0]\n","__________________________________________________________________________________________________\n","Block17_10_Branch_1_Conv2d_0c_7 (None, 12, 12, 128)  384         Block17_10_Branch_1_Conv2d_0c_7x1\n","__________________________________________________________________________________________________\n","Block17_10_Branch_0_Conv2d_1x1_ (None, 12, 12, 128)  0           Block17_10_Branch_0_Conv2d_1x1_Ba\n","__________________________________________________________________________________________________\n","Block17_10_Branch_1_Conv2d_0c_7 (None, 12, 12, 128)  0           Block17_10_Branch_1_Conv2d_0c_7x1\n","__________________________________________________________________________________________________\n","Block17_10_Concatenate (Concate (None, 12, 12, 256)  0           Block17_10_Branch_0_Conv2d_1x1_Ac\n","                                                                 Block17_10_Branch_1_Conv2d_0c_7x1\n","__________________________________________________________________________________________________\n","Block17_10_Conv2d_1x1 (Conv2D)  (None, 12, 12, 896)  230272      Block17_10_Concatenate[0][0]     \n","__________________________________________________________________________________________________\n","lambda_35 (Lambda)              (None, 12, 12, 896)  0           Block17_10_Conv2d_1x1[0][0]      \n","__________________________________________________________________________________________________\n","add_35 (Add)                    (None, 12, 12, 896)  0           Block17_9_Activation[0][0]       \n","                                                                 lambda_35[0][0]                  \n","__________________________________________________________________________________________________\n","Block17_10_Activation (Activati (None, 12, 12, 896)  0           add_35[0][0]                     \n","__________________________________________________________________________________________________\n","Mixed_7a_Branch_2_Conv2d_0a_1x1 (None, 12, 12, 256)  229376      Block17_10_Activation[0][0]      \n","__________________________________________________________________________________________________\n","Mixed_7a_Branch_2_Conv2d_0a_1x1 (None, 12, 12, 256)  768         Mixed_7a_Branch_2_Conv2d_0a_1x1[0\n","__________________________________________________________________________________________________\n","Mixed_7a_Branch_2_Conv2d_0a_1x1 (None, 12, 12, 256)  0           Mixed_7a_Branch_2_Conv2d_0a_1x1_B\n","__________________________________________________________________________________________________\n","Mixed_7a_Branch_0_Conv2d_0a_1x1 (None, 12, 12, 256)  229376      Block17_10_Activation[0][0]      \n","__________________________________________________________________________________________________\n","Mixed_7a_Branch_1_Conv2d_0a_1x1 (None, 12, 12, 256)  229376      Block17_10_Activation[0][0]      \n","__________________________________________________________________________________________________\n","Mixed_7a_Branch_2_Conv2d_0b_3x3 (None, 12, 12, 256)  589824      Mixed_7a_Branch_2_Conv2d_0a_1x1_A\n","__________________________________________________________________________________________________\n","Mixed_7a_Branch_0_Conv2d_0a_1x1 (None, 12, 12, 256)  768         Mixed_7a_Branch_0_Conv2d_0a_1x1[0\n","__________________________________________________________________________________________________\n","Mixed_7a_Branch_1_Conv2d_0a_1x1 (None, 12, 12, 256)  768         Mixed_7a_Branch_1_Conv2d_0a_1x1[0\n","__________________________________________________________________________________________________\n","Mixed_7a_Branch_2_Conv2d_0b_3x3 (None, 12, 12, 256)  768         Mixed_7a_Branch_2_Conv2d_0b_3x3[0\n","__________________________________________________________________________________________________\n","Mixed_7a_Branch_0_Conv2d_0a_1x1 (None, 12, 12, 256)  0           Mixed_7a_Branch_0_Conv2d_0a_1x1_B\n","__________________________________________________________________________________________________\n","Mixed_7a_Branch_1_Conv2d_0a_1x1 (None, 12, 12, 256)  0           Mixed_7a_Branch_1_Conv2d_0a_1x1_B\n","__________________________________________________________________________________________________\n","Mixed_7a_Branch_2_Conv2d_0b_3x3 (None, 12, 12, 256)  0           Mixed_7a_Branch_2_Conv2d_0b_3x3_B\n","__________________________________________________________________________________________________\n","Mixed_7a_Branch_0_Conv2d_1a_3x3 (None, 5, 5, 384)    884736      Mixed_7a_Branch_0_Conv2d_0a_1x1_A\n","__________________________________________________________________________________________________\n","Mixed_7a_Branch_1_Conv2d_1a_3x3 (None, 5, 5, 256)    589824      Mixed_7a_Branch_1_Conv2d_0a_1x1_A\n","__________________________________________________________________________________________________\n","Mixed_7a_Branch_2_Conv2d_1a_3x3 (None, 5, 5, 256)    589824      Mixed_7a_Branch_2_Conv2d_0b_3x3_A\n","__________________________________________________________________________________________________\n","Mixed_7a_Branch_0_Conv2d_1a_3x3 (None, 5, 5, 384)    1152        Mixed_7a_Branch_0_Conv2d_1a_3x3[0\n","__________________________________________________________________________________________________\n","Mixed_7a_Branch_1_Conv2d_1a_3x3 (None, 5, 5, 256)    768         Mixed_7a_Branch_1_Conv2d_1a_3x3[0\n","__________________________________________________________________________________________________\n","Mixed_7a_Branch_2_Conv2d_1a_3x3 (None, 5, 5, 256)    768         Mixed_7a_Branch_2_Conv2d_1a_3x3[0\n","__________________________________________________________________________________________________\n","Mixed_7a_Branch_0_Conv2d_1a_3x3 (None, 5, 5, 384)    0           Mixed_7a_Branch_0_Conv2d_1a_3x3_B\n","__________________________________________________________________________________________________\n","Mixed_7a_Branch_1_Conv2d_1a_3x3 (None, 5, 5, 256)    0           Mixed_7a_Branch_1_Conv2d_1a_3x3_B\n","__________________________________________________________________________________________________\n","Mixed_7a_Branch_2_Conv2d_1a_3x3 (None, 5, 5, 256)    0           Mixed_7a_Branch_2_Conv2d_1a_3x3_B\n","__________________________________________________________________________________________________\n","Mixed_7a_Branch_3_MaxPool_1a_3x (None, 5, 5, 896)    0           Block17_10_Activation[0][0]      \n","__________________________________________________________________________________________________\n","Mixed_7a (Concatenate)          (None, 5, 5, 1792)   0           Mixed_7a_Branch_0_Conv2d_1a_3x3_A\n","                                                                 Mixed_7a_Branch_1_Conv2d_1a_3x3_A\n","                                                                 Mixed_7a_Branch_2_Conv2d_1a_3x3_A\n","                                                                 Mixed_7a_Branch_3_MaxPool_1a_3x3[\n","__________________________________________________________________________________________________\n","Block8_1_Branch_1_Conv2d_0a_1x1 (None, 5, 5, 192)    344064      Mixed_7a[0][0]                   \n","__________________________________________________________________________________________________\n","Block8_1_Branch_1_Conv2d_0a_1x1 (None, 5, 5, 192)    576         Block8_1_Branch_1_Conv2d_0a_1x1[0\n","__________________________________________________________________________________________________\n","Block8_1_Branch_1_Conv2d_0a_1x1 (None, 5, 5, 192)    0           Block8_1_Branch_1_Conv2d_0a_1x1_B\n","__________________________________________________________________________________________________\n","Block8_1_Branch_1_Conv2d_0b_1x3 (None, 5, 5, 192)    110592      Block8_1_Branch_1_Conv2d_0a_1x1_A\n","__________________________________________________________________________________________________\n","Block8_1_Branch_1_Conv2d_0b_1x3 (None, 5, 5, 192)    576         Block8_1_Branch_1_Conv2d_0b_1x3[0\n","__________________________________________________________________________________________________\n","Block8_1_Branch_1_Conv2d_0b_1x3 (None, 5, 5, 192)    0           Block8_1_Branch_1_Conv2d_0b_1x3_B\n","__________________________________________________________________________________________________\n","Block8_1_Branch_0_Conv2d_1x1 (C (None, 5, 5, 192)    344064      Mixed_7a[0][0]                   \n","__________________________________________________________________________________________________\n","Block8_1_Branch_1_Conv2d_0c_3x1 (None, 5, 5, 192)    110592      Block8_1_Branch_1_Conv2d_0b_1x3_A\n","__________________________________________________________________________________________________\n","Block8_1_Branch_0_Conv2d_1x1_Ba (None, 5, 5, 192)    576         Block8_1_Branch_0_Conv2d_1x1[0][0\n","__________________________________________________________________________________________________\n","Block8_1_Branch_1_Conv2d_0c_3x1 (None, 5, 5, 192)    576         Block8_1_Branch_1_Conv2d_0c_3x1[0\n","__________________________________________________________________________________________________\n","Block8_1_Branch_0_Conv2d_1x1_Ac (None, 5, 5, 192)    0           Block8_1_Branch_0_Conv2d_1x1_Batc\n","__________________________________________________________________________________________________\n","Block8_1_Branch_1_Conv2d_0c_3x1 (None, 5, 5, 192)    0           Block8_1_Branch_1_Conv2d_0c_3x1_B\n","__________________________________________________________________________________________________\n","Block8_1_Concatenate (Concatena (None, 5, 5, 384)    0           Block8_1_Branch_0_Conv2d_1x1_Acti\n","                                                                 Block8_1_Branch_1_Conv2d_0c_3x1_A\n","__________________________________________________________________________________________________\n","Block8_1_Conv2d_1x1 (Conv2D)    (None, 5, 5, 1792)   689920      Block8_1_Concatenate[0][0]       \n","__________________________________________________________________________________________________\n","lambda_36 (Lambda)              (None, 5, 5, 1792)   0           Block8_1_Conv2d_1x1[0][0]        \n","__________________________________________________________________________________________________\n","add_36 (Add)                    (None, 5, 5, 1792)   0           Mixed_7a[0][0]                   \n","                                                                 lambda_36[0][0]                  \n","__________________________________________________________________________________________________\n","Block8_1_Activation (Activation (None, 5, 5, 1792)   0           add_36[0][0]                     \n","__________________________________________________________________________________________________\n","Block8_2_Branch_1_Conv2d_0a_1x1 (None, 5, 5, 192)    344064      Block8_1_Activation[0][0]        \n","__________________________________________________________________________________________________\n","Block8_2_Branch_1_Conv2d_0a_1x1 (None, 5, 5, 192)    576         Block8_2_Branch_1_Conv2d_0a_1x1[0\n","__________________________________________________________________________________________________\n","Block8_2_Branch_1_Conv2d_0a_1x1 (None, 5, 5, 192)    0           Block8_2_Branch_1_Conv2d_0a_1x1_B\n","__________________________________________________________________________________________________\n","Block8_2_Branch_1_Conv2d_0b_1x3 (None, 5, 5, 192)    110592      Block8_2_Branch_1_Conv2d_0a_1x1_A\n","__________________________________________________________________________________________________\n","Block8_2_Branch_1_Conv2d_0b_1x3 (None, 5, 5, 192)    576         Block8_2_Branch_1_Conv2d_0b_1x3[0\n","__________________________________________________________________________________________________\n","Block8_2_Branch_1_Conv2d_0b_1x3 (None, 5, 5, 192)    0           Block8_2_Branch_1_Conv2d_0b_1x3_B\n","__________________________________________________________________________________________________\n","Block8_2_Branch_0_Conv2d_1x1 (C (None, 5, 5, 192)    344064      Block8_1_Activation[0][0]        \n","__________________________________________________________________________________________________\n","Block8_2_Branch_1_Conv2d_0c_3x1 (None, 5, 5, 192)    110592      Block8_2_Branch_1_Conv2d_0b_1x3_A\n","__________________________________________________________________________________________________\n","Block8_2_Branch_0_Conv2d_1x1_Ba (None, 5, 5, 192)    576         Block8_2_Branch_0_Conv2d_1x1[0][0\n","__________________________________________________________________________________________________\n","Block8_2_Branch_1_Conv2d_0c_3x1 (None, 5, 5, 192)    576         Block8_2_Branch_1_Conv2d_0c_3x1[0\n","__________________________________________________________________________________________________\n","Block8_2_Branch_0_Conv2d_1x1_Ac (None, 5, 5, 192)    0           Block8_2_Branch_0_Conv2d_1x1_Batc\n","__________________________________________________________________________________________________\n","Block8_2_Branch_1_Conv2d_0c_3x1 (None, 5, 5, 192)    0           Block8_2_Branch_1_Conv2d_0c_3x1_B\n","__________________________________________________________________________________________________\n","Block8_2_Concatenate (Concatena (None, 5, 5, 384)    0           Block8_2_Branch_0_Conv2d_1x1_Acti\n","                                                                 Block8_2_Branch_1_Conv2d_0c_3x1_A\n","__________________________________________________________________________________________________\n","Block8_2_Conv2d_1x1 (Conv2D)    (None, 5, 5, 1792)   689920      Block8_2_Concatenate[0][0]       \n","__________________________________________________________________________________________________\n","lambda_37 (Lambda)              (None, 5, 5, 1792)   0           Block8_2_Conv2d_1x1[0][0]        \n","__________________________________________________________________________________________________\n","add_37 (Add)                    (None, 5, 5, 1792)   0           Block8_1_Activation[0][0]        \n","                                                                 lambda_37[0][0]                  \n","__________________________________________________________________________________________________\n","Block8_2_Activation (Activation (None, 5, 5, 1792)   0           add_37[0][0]                     \n","__________________________________________________________________________________________________\n","Block8_3_Branch_1_Conv2d_0a_1x1 (None, 5, 5, 192)    344064      Block8_2_Activation[0][0]        \n","__________________________________________________________________________________________________\n","Block8_3_Branch_1_Conv2d_0a_1x1 (None, 5, 5, 192)    576         Block8_3_Branch_1_Conv2d_0a_1x1[0\n","__________________________________________________________________________________________________\n","Block8_3_Branch_1_Conv2d_0a_1x1 (None, 5, 5, 192)    0           Block8_3_Branch_1_Conv2d_0a_1x1_B\n","__________________________________________________________________________________________________\n","Block8_3_Branch_1_Conv2d_0b_1x3 (None, 5, 5, 192)    110592      Block8_3_Branch_1_Conv2d_0a_1x1_A\n","__________________________________________________________________________________________________\n","Block8_3_Branch_1_Conv2d_0b_1x3 (None, 5, 5, 192)    576         Block8_3_Branch_1_Conv2d_0b_1x3[0\n","__________________________________________________________________________________________________\n","Block8_3_Branch_1_Conv2d_0b_1x3 (None, 5, 5, 192)    0           Block8_3_Branch_1_Conv2d_0b_1x3_B\n","__________________________________________________________________________________________________\n","Block8_3_Branch_0_Conv2d_1x1 (C (None, 5, 5, 192)    344064      Block8_2_Activation[0][0]        \n","__________________________________________________________________________________________________\n","Block8_3_Branch_1_Conv2d_0c_3x1 (None, 5, 5, 192)    110592      Block8_3_Branch_1_Conv2d_0b_1x3_A\n","__________________________________________________________________________________________________\n","Block8_3_Branch_0_Conv2d_1x1_Ba (None, 5, 5, 192)    576         Block8_3_Branch_0_Conv2d_1x1[0][0\n","__________________________________________________________________________________________________\n","Block8_3_Branch_1_Conv2d_0c_3x1 (None, 5, 5, 192)    576         Block8_3_Branch_1_Conv2d_0c_3x1[0\n","__________________________________________________________________________________________________\n","Block8_3_Branch_0_Conv2d_1x1_Ac (None, 5, 5, 192)    0           Block8_3_Branch_0_Conv2d_1x1_Batc\n","__________________________________________________________________________________________________\n","Block8_3_Branch_1_Conv2d_0c_3x1 (None, 5, 5, 192)    0           Block8_3_Branch_1_Conv2d_0c_3x1_B\n","__________________________________________________________________________________________________\n","Block8_3_Concatenate (Concatena (None, 5, 5, 384)    0           Block8_3_Branch_0_Conv2d_1x1_Acti\n","                                                                 Block8_3_Branch_1_Conv2d_0c_3x1_A\n","__________________________________________________________________________________________________\n","Block8_3_Conv2d_1x1 (Conv2D)    (None, 5, 5, 1792)   689920      Block8_3_Concatenate[0][0]       \n","__________________________________________________________________________________________________\n","lambda_38 (Lambda)              (None, 5, 5, 1792)   0           Block8_3_Conv2d_1x1[0][0]        \n","__________________________________________________________________________________________________\n","add_38 (Add)                    (None, 5, 5, 1792)   0           Block8_2_Activation[0][0]        \n","                                                                 lambda_38[0][0]                  \n","__________________________________________________________________________________________________\n","Block8_3_Activation (Activation (None, 5, 5, 1792)   0           add_38[0][0]                     \n","__________________________________________________________________________________________________\n","Block8_4_Branch_1_Conv2d_0a_1x1 (None, 5, 5, 192)    344064      Block8_3_Activation[0][0]        \n","__________________________________________________________________________________________________\n","Block8_4_Branch_1_Conv2d_0a_1x1 (None, 5, 5, 192)    576         Block8_4_Branch_1_Conv2d_0a_1x1[0\n","__________________________________________________________________________________________________\n","Block8_4_Branch_1_Conv2d_0a_1x1 (None, 5, 5, 192)    0           Block8_4_Branch_1_Conv2d_0a_1x1_B\n","__________________________________________________________________________________________________\n","Block8_4_Branch_1_Conv2d_0b_1x3 (None, 5, 5, 192)    110592      Block8_4_Branch_1_Conv2d_0a_1x1_A\n","__________________________________________________________________________________________________\n","Block8_4_Branch_1_Conv2d_0b_1x3 (None, 5, 5, 192)    576         Block8_4_Branch_1_Conv2d_0b_1x3[0\n","__________________________________________________________________________________________________\n","Block8_4_Branch_1_Conv2d_0b_1x3 (None, 5, 5, 192)    0           Block8_4_Branch_1_Conv2d_0b_1x3_B\n","__________________________________________________________________________________________________\n","Block8_4_Branch_0_Conv2d_1x1 (C (None, 5, 5, 192)    344064      Block8_3_Activation[0][0]        \n","__________________________________________________________________________________________________\n","Block8_4_Branch_1_Conv2d_0c_3x1 (None, 5, 5, 192)    110592      Block8_4_Branch_1_Conv2d_0b_1x3_A\n","__________________________________________________________________________________________________\n","Block8_4_Branch_0_Conv2d_1x1_Ba (None, 5, 5, 192)    576         Block8_4_Branch_0_Conv2d_1x1[0][0\n","__________________________________________________________________________________________________\n","Block8_4_Branch_1_Conv2d_0c_3x1 (None, 5, 5, 192)    576         Block8_4_Branch_1_Conv2d_0c_3x1[0\n","__________________________________________________________________________________________________\n","Block8_4_Branch_0_Conv2d_1x1_Ac (None, 5, 5, 192)    0           Block8_4_Branch_0_Conv2d_1x1_Batc\n","__________________________________________________________________________________________________\n","Block8_4_Branch_1_Conv2d_0c_3x1 (None, 5, 5, 192)    0           Block8_4_Branch_1_Conv2d_0c_3x1_B\n","__________________________________________________________________________________________________\n","Block8_4_Concatenate (Concatena (None, 5, 5, 384)    0           Block8_4_Branch_0_Conv2d_1x1_Acti\n","                                                                 Block8_4_Branch_1_Conv2d_0c_3x1_A\n","__________________________________________________________________________________________________\n","Block8_4_Conv2d_1x1 (Conv2D)    (None, 5, 5, 1792)   689920      Block8_4_Concatenate[0][0]       \n","__________________________________________________________________________________________________\n","lambda_39 (Lambda)              (None, 5, 5, 1792)   0           Block8_4_Conv2d_1x1[0][0]        \n","__________________________________________________________________________________________________\n","add_39 (Add)                    (None, 5, 5, 1792)   0           Block8_3_Activation[0][0]        \n","                                                                 lambda_39[0][0]                  \n","__________________________________________________________________________________________________\n","Block8_4_Activation (Activation (None, 5, 5, 1792)   0           add_39[0][0]                     \n","__________________________________________________________________________________________________\n","Block8_5_Branch_1_Conv2d_0a_1x1 (None, 5, 5, 192)    344064      Block8_4_Activation[0][0]        \n","__________________________________________________________________________________________________\n","Block8_5_Branch_1_Conv2d_0a_1x1 (None, 5, 5, 192)    576         Block8_5_Branch_1_Conv2d_0a_1x1[0\n","__________________________________________________________________________________________________\n","Block8_5_Branch_1_Conv2d_0a_1x1 (None, 5, 5, 192)    0           Block8_5_Branch_1_Conv2d_0a_1x1_B\n","__________________________________________________________________________________________________\n","Block8_5_Branch_1_Conv2d_0b_1x3 (None, 5, 5, 192)    110592      Block8_5_Branch_1_Conv2d_0a_1x1_A\n","__________________________________________________________________________________________________\n","Block8_5_Branch_1_Conv2d_0b_1x3 (None, 5, 5, 192)    576         Block8_5_Branch_1_Conv2d_0b_1x3[0\n","__________________________________________________________________________________________________\n","Block8_5_Branch_1_Conv2d_0b_1x3 (None, 5, 5, 192)    0           Block8_5_Branch_1_Conv2d_0b_1x3_B\n","__________________________________________________________________________________________________\n","Block8_5_Branch_0_Conv2d_1x1 (C (None, 5, 5, 192)    344064      Block8_4_Activation[0][0]        \n","__________________________________________________________________________________________________\n","Block8_5_Branch_1_Conv2d_0c_3x1 (None, 5, 5, 192)    110592      Block8_5_Branch_1_Conv2d_0b_1x3_A\n","__________________________________________________________________________________________________\n","Block8_5_Branch_0_Conv2d_1x1_Ba (None, 5, 5, 192)    576         Block8_5_Branch_0_Conv2d_1x1[0][0\n","__________________________________________________________________________________________________\n","Block8_5_Branch_1_Conv2d_0c_3x1 (None, 5, 5, 192)    576         Block8_5_Branch_1_Conv2d_0c_3x1[0\n","__________________________________________________________________________________________________\n","Block8_5_Branch_0_Conv2d_1x1_Ac (None, 5, 5, 192)    0           Block8_5_Branch_0_Conv2d_1x1_Batc\n","__________________________________________________________________________________________________\n","Block8_5_Branch_1_Conv2d_0c_3x1 (None, 5, 5, 192)    0           Block8_5_Branch_1_Conv2d_0c_3x1_B\n","__________________________________________________________________________________________________\n","Block8_5_Concatenate (Concatena (None, 5, 5, 384)    0           Block8_5_Branch_0_Conv2d_1x1_Acti\n","                                                                 Block8_5_Branch_1_Conv2d_0c_3x1_A\n","__________________________________________________________________________________________________\n","Block8_5_Conv2d_1x1 (Conv2D)    (None, 5, 5, 1792)   689920      Block8_5_Concatenate[0][0]       \n","__________________________________________________________________________________________________\n","lambda_40 (Lambda)              (None, 5, 5, 1792)   0           Block8_5_Conv2d_1x1[0][0]        \n","__________________________________________________________________________________________________\n","add_40 (Add)                    (None, 5, 5, 1792)   0           Block8_4_Activation[0][0]        \n","                                                                 lambda_40[0][0]                  \n","__________________________________________________________________________________________________\n","Block8_5_Activation (Activation (None, 5, 5, 1792)   0           add_40[0][0]                     \n","__________________________________________________________________________________________________\n","Block8_6_Branch_1_Conv2d_0a_1x1 (None, 5, 5, 192)    344064      Block8_5_Activation[0][0]        \n","__________________________________________________________________________________________________\n","Block8_6_Branch_1_Conv2d_0a_1x1 (None, 5, 5, 192)    576         Block8_6_Branch_1_Conv2d_0a_1x1[0\n","__________________________________________________________________________________________________\n","Block8_6_Branch_1_Conv2d_0a_1x1 (None, 5, 5, 192)    0           Block8_6_Branch_1_Conv2d_0a_1x1_B\n","__________________________________________________________________________________________________\n","Block8_6_Branch_1_Conv2d_0b_1x3 (None, 5, 5, 192)    110592      Block8_6_Branch_1_Conv2d_0a_1x1_A\n","__________________________________________________________________________________________________\n","Block8_6_Branch_1_Conv2d_0b_1x3 (None, 5, 5, 192)    576         Block8_6_Branch_1_Conv2d_0b_1x3[0\n","__________________________________________________________________________________________________\n","Block8_6_Branch_1_Conv2d_0b_1x3 (None, 5, 5, 192)    0           Block8_6_Branch_1_Conv2d_0b_1x3_B\n","__________________________________________________________________________________________________\n","Block8_6_Branch_0_Conv2d_1x1 (C (None, 5, 5, 192)    344064      Block8_5_Activation[0][0]        \n","__________________________________________________________________________________________________\n","Block8_6_Branch_1_Conv2d_0c_3x1 (None, 5, 5, 192)    110592      Block8_6_Branch_1_Conv2d_0b_1x3_A\n","__________________________________________________________________________________________________\n","Block8_6_Branch_0_Conv2d_1x1_Ba (None, 5, 5, 192)    576         Block8_6_Branch_0_Conv2d_1x1[0][0\n","__________________________________________________________________________________________________\n","Block8_6_Branch_1_Conv2d_0c_3x1 (None, 5, 5, 192)    576         Block8_6_Branch_1_Conv2d_0c_3x1[0\n","__________________________________________________________________________________________________\n","Block8_6_Branch_0_Conv2d_1x1_Ac (None, 5, 5, 192)    0           Block8_6_Branch_0_Conv2d_1x1_Batc\n","__________________________________________________________________________________________________\n","Block8_6_Branch_1_Conv2d_0c_3x1 (None, 5, 5, 192)    0           Block8_6_Branch_1_Conv2d_0c_3x1_B\n","__________________________________________________________________________________________________\n","Block8_6_Concatenate (Concatena (None, 5, 5, 384)    0           Block8_6_Branch_0_Conv2d_1x1_Acti\n","                                                                 Block8_6_Branch_1_Conv2d_0c_3x1_A\n","__________________________________________________________________________________________________\n","Block8_6_Conv2d_1x1 (Conv2D)    (None, 5, 5, 1792)   689920      Block8_6_Concatenate[0][0]       \n","__________________________________________________________________________________________________\n","lambda_41 (Lambda)              (None, 5, 5, 1792)   0           Block8_6_Conv2d_1x1[0][0]        \n","__________________________________________________________________________________________________\n","add_41 (Add)                    (None, 5, 5, 1792)   0           Block8_5_Activation[0][0]        \n","                                                                 lambda_41[0][0]                  \n","__________________________________________________________________________________________________\n","AvgPool (GlobalAveragePooling2D (None, 1792)         0           add_41[0][0]                     \n","__________________________________________________________________________________________________\n","Dropout (Dropout)               (None, 1792)         0           AvgPool[0][0]                    \n","__________________________________________________________________________________________________\n","Bottleneck (Dense)              (None, 128)          229376      Dropout[0][0]                    \n","__________________________________________________________________________________________________\n","Bottleneck_BatchNorm (BatchNorm (None, 128)          384         Bottleneck[0][0]                 \n","==================================================================================================\n","Total params: 22,808,144\n","Trainable params: 0\n","Non-trainable params: 22,808,144\n","__________________________________________________________________________________________________\n"]}]},{"cell_type":"code","metadata":{"colab":{"base_uri":"h
…
edictions = Dense(classes, activation='softmax')(x)\n","\n","my_model = Model(inputs=base_model.input, outputs=predictions)\n","\n","my_model.summary()"],"execution_count":null,"outputs":[{"name":"stdout","output_type":"stream","text":["Model: \"model\"\n","__________________________________________________________________________________________________\n","Layer (type)                    Output Shape         Param #     Connected to                     \n","==================================================================================================\n","input_2 (InputLayer)            [(None, 224, 224, 3) 0                                            \n","__________________________________________________________________________________________________\n","Conv2d_1a_3x3 (Conv2D)          (None, 111, 111, 32) 864         input_2[0][0]                    \n","__________________________________________________________________________________________________\n","Conv2d_1a_3x3_BatchNorm (BatchN (None, 111, 111, 32) 96          Conv2d_1a_3x3[0][0]              \n","__________________________________________________________________________________________________\n","Conv2d_1a_3x3_Activation (Activ (None, 111, 111, 32) 0           Conv2d_1a_3x3_BatchNorm[0][0]    \n","__________________________________________________________________________________________________\n","Conv2d_2a_3x3 (Conv2D)          (None, 109, 109, 32) 9216        Conv2d_1a_3x3_Activation[0][0]   \n","__________________________________________________________________________________________________\n","Conv2d_2a_3x3_BatchNorm (BatchN (None, 109, 109, 32) 96          Conv2d_2a_3x3[0][0]              \n","__________________________________________________________________________________________________\n","Conv2d_2a_3x3_Activation (Activ (None, 109, 109, 32) 0           Conv2d_2a_3x3_BatchNorm[0][0]    \n","__________________________________________________________________________________________________\n","Conv2d_2b_3x3 (Conv2D)          (None, 109, 109, 64) 18432       Conv2d_2a_3x3_Activation[0][0]   \n","__________________________________________________________________________________________________\n","Conv2d_2b_3x3_BatchNorm (BatchN (None, 109, 109, 64) 192         Conv2d_2b_3x3[0][0]              \n","__________________________________________________________________________________________________\n","Conv2d_2b_3x3_Activation (Activ (None, 109, 109, 64) 0           Conv2d_2b_3x3_BatchNorm[0][0]    \n","__________________________________________________________________________________________________\n","MaxPool_3a_3x3 (MaxPooling2D)   (None, 54, 54, 64)   0           Conv2d_2b_3x3_Activation[0][0]   \n","__________________________________________________________________________________________________\n","Conv2d_3b_1x1 (Conv2D)          (None, 54, 54, 80)   5120        MaxPool_3a_3x3[0][0]             \n","__________________________________________________________________________________________________\n","Conv2d_3b_1x1_BatchNorm (BatchN (None, 54, 54, 80)   240         Conv2d_3b_1x1[0][0]              \n","__________________________________________________________________________________________________\n","Conv2d_3b_1x1_Activation (Activ (None, 54, 54, 80)   0           Conv2d_3b_1x1_BatchNorm[0][0]    \n","__________________________________________________________________________________________________\n","Conv2d_4a_3x3 (Conv2D)          (None, 52, 52, 192)  138240      Conv2d_3b_1x1_Activation[0][0]   \n","__________________________________________________________________________________________________\n","Conv2d_4a_3x3_BatchNorm (BatchN (None, 52, 52, 192)  576         Conv2d_4a_3x3[0][0]              \n","__________________________________________________________________________________________________\n","Conv2d_4a_3x3_Activation (Activ (None, 52, 52, 192)  0           Conv2d_4a_3x3_BatchNorm[0][0]    \n","__________________________________________________________________________________________________\n","Conv2d_4b_3x3 (Conv2D)          (None, 25, 25, 256)  442368      Conv2d_4a_3x3_Activation[0][0]   \n","__________________________________________________________________________________________________\n","Conv2d_4b_3x3_BatchNorm (BatchN (None, 25, 25, 256)  768         Conv2d_4b_3x3[0][0]              \n","__________________________________________________________________________________________________\n","Conv2d_4b_3x3_Activation (Activ (None, 25, 25, 256)  0           Conv2d_4b_3x3_BatchNorm[0][0]    \n","__________________________________________________________________________________________________\n","Block35_1_Branch_2_Conv2d_0a_1x (None, 25, 25, 32)   8192        Conv2d_4b_3x3_Activation[0][0]   \n","__________________________________________________________________________________________________\n","Block35_1_Branch_2_Conv2d_0a_1x (None, 25, 25, 32)   96          Block35_1_Branch_2_Conv2d_0a_1x1[\n","__________________________________________________________________________________________________\n","Block35_1_Branch_2_Conv2d_0a_1x (None, 25, 25, 32)   0           Block35_1_Branch_2_Conv2d_0a_1x1_\n","__________________________________________________________________________________________________\n","Block35_1_Branch_1_Conv2d_0a_1x (None, 25, 25, 32)   8192        Conv2d_4b_3x3_Activation[0][0]   \n","__________________________________________________________________________________________________\n","Block35_1_Branch_2_Conv2d_0b_3x (None, 25, 25, 32)   9216        Block35_1_Branch_2_Conv2d_0a_1x1_\n","__________________________________________________________________________________________________\n","Block35_1_Branch_1_Conv2d_0a_1x (None, 25, 25, 32)   96          Block35_1_Branch_1_Conv2d_0a_1x1[\n","__________________________________________________________________________________________________\n","Block35_1_Branch_2_Conv2d_0b_3x (None, 25, 25, 32)   96          Block35_1_Branch_2_Conv2d_0b_3x3[\n","__________________________________________________________________________________________________\n","Block35_1_Branch_1_Conv2d_0a_1x (None, 25, 25, 32)   0           Block35_1_Branch_1_Conv2d_0a_1x1_\n","__________________________________________________________________________________________________\n","Block35_1_Branch_2_Conv2d_0b_3x (None, 25, 25, 32)   0           Block35_1_Branch_2_Conv2d_0b_3x3_\n","__________________________________________________________________________________________________\n","Block35_1_Branch_0_Conv2d_1x1 ( (None, 25, 25, 32)   8192        Conv2d_4b_3x3_Activation[0][0]   \n","__________________________________________________________________________________________________\n","Block35_1_Branch_1_Conv2d_0b_3x (None, 25, 25, 32)   9216        Block35_1_Branch_1_Conv2d_0a_1x1_\n","__________________________________________________________________________________________________\n","Block35_1_Branch_2_Conv2d_0c_3x (None, 25, 25, 32)   9216        Block35_1_Branch_2_Conv2d_0b_3x3_\n","__________________________________________________________________________________________________\n","Block35_1_Branch_0_Conv2d_1x1_B (None, 25, 25, 32)   96          Block35_1_Branch_0_Conv2d_1x1[0][\n","__________________________________________________________________________________________________\n","Block35_1_Branch_1_Conv2d_0b_3x (None, 25, 25, 32)   96          Block35_1_Branch_1_Conv2d_0b_3x3[\n","__________________________________________________________________________________________________\n","Block35_1_Branch_2_Conv2d_0c_3x (None, 25, 25, 32)   96          Block35_1_Branch_2_Conv2d_0c_3x3[\n","__________________________________________________________________________________________________\n","Block35_1_Branch_0_Conv2d_1x1_A (None, 25, 25, 32)   0           Block35_1_Branch_0_Conv2d_1x1_Bat\n","__________________________________________________________________________________________________\n","Block35_1_Branch_1_Conv2d_0b_3x (None, 25, 25, 32)   0           Block35_1_Branch_1_Conv2d_0b_3x3_\n","__________________________________________________________________________________________________\n","Block35_1_Branch_2_Conv2d_0c_3x (None, 25, 25, 32)   0           Block35_1_Branch_2_Conv2d_0c_3x3_\n","__________________________________________________________________________________________________\n","Block35_1_Concatenate (Concaten (None, 25, 25, 96)   0           Block35_1_Branch_0_Conv2d_1x1_Act\n","                                                                 Block35_1_Branch_1_Conv2d_0b_3x3_\n","                                                                 Block35_1_Branch_2_Conv2d_0c_3x3_\n","__________________________________________________________________________________________________\n","Block35_1_Conv2d_1x1 (Conv2D)   (None, 25, 25, 256)  24832       Block35_1_Concatenate[0][0]      \n","__________________________________________________________________________________________________\n","lambda_21 (Lambda)              (None, 25, 25, 256)  0           Block35_1_Conv2d_1x1[0][0]       \n","__________________________________________________________________________________________________\n","add_21 (Add)                    (None, 25, 25, 256)  0           Conv2d_4b_3x3_Activation[0][0]   \n","                                                                 lambda_21[0][0]                  \n","__________________________________________________________________________________________________\n","Block35_1_Activation (Activatio (None, 25, 25, 256)  0           add_21[0][0]                     \n","__________________________________________________________________________________________________\n","Block35_2_Branch_2_Conv2d_0a_1x (None, 25, 25, 32)   8192        Block35_1_Activation[0][0]       \n","__________________________________________________________________________________________________\n","Block35_2_Branch_2_Conv2d_0a_1x (None, 25, 25, 32)   96          Block35_2_Branch_2_Conv2d_0a_1x1[\n","__________________________________________________________________________________________________\n","Block35_2_Branch_2_Conv2d_0a_1x (None, 25, 25, 32)   0           Block35_2_Branch_2_Conv2d_0a_1x1_\n","__________________________________________________________________________________________________\n","Block35_2_Branch_1_Conv2d_0a_1x (None, 25, 25, 32)   8192        Block35_1_Activation[0][0]       \n","__________________________________________________________________________________________________\n","Block35_2_Branch_2_Conv2d_0b_3x (None, 25, 25, 32)   9216        Block35_2_Branch_2_Conv2d_0a_1x1_\n","__________________________________________________________________________________________________\n","Block35_2_Branch_1_Conv2d_0a_1x (None, 25, 25, 32)   96          Block35_2_Branch_1_Conv2d_0a_1x1[\n","__________________________________________________________________________________________________\n","Block35_2_Branch_2_Conv2d_0b_3x (None, 25, 25, 32)   96          Block35_2_Branch_2_Conv2d_0b_3x3[\n","__________________________________________________________________________________________________\n","Block35_2_Branch_1_Conv2d_0a_1x (None, 25, 25, 32)   0           Block35_2_Branch_1_Conv2d_0a_1x1_\n","__________________________________________________________________________________________________\n","Block35_2_Branch_2_Conv2d_0b_3x (None, 25, 25, 32)   0           Block35_2_Branch_2_Conv2d_0b_3x3_\n","__________________________________________________________________________________________________\n","Block35_2_Branch_0_Conv2d_1x1 ( (None, 25, 25, 32)   8192        Block35_1_Activation[0][0]       \n","__________________________________________________________________________________________________\n","Block35_2_Branch_1_Conv2d_0b_3x (None, 25, 25, 32)   9216        Block35_2_Branch_1_Conv2d_0a_1x1_\n","__________________________________________________________________________________________________\n","Block35_2_Branch_2_Conv2d_0c_3x (None, 25, 25, 32)   9216        Block35_2_Branch_2_Conv2d_0b_3x3_\n","__________________________________________________________________________________________________\n","Block35_2_Branch_0_Conv2d_1x1_B (None, 25, 25, 32)   96          Block35_2_Branch_0_Conv2d_1x1[0][\n","__________________________________________________________________________________________________\n","Block35_2_Branch_1_Conv2d_0b_3x (None, 25, 25, 32)   96          Block35_2_Branch_1_Conv2d_0b_3x3[\n","__________________________________________________________________________________________________\n","Block35_2_Branch_2_Conv2d_0c_3x (None, 25, 25, 32)   96          Block35_2_Branch_2_Conv2d_0c_3x3[\n","__________________________________________________________________________________________________\n","Block35_2_Branch_0_Conv2d_1x1_A (None, 25, 25, 32)   0           Block35_2_Branch_0_Conv2d_1x1_Bat\n","__________________________________________________________________________________________________\n","Block35_2_Branch_1_Conv2d_0b_3x (None, 25, 25, 32)   0           Block35_2_Branch_1_Conv2d_0b_3x3_\n","__________________________________________________________________________________________________\n","Block35_2_Branch_2_Conv2d_0c_3x (None, 25, 25, 32)   0           Block35_2_Branch_2_Conv2d_0c_3x3_\n","__________________________________________________________________________________________________\n","Block35_2_Concatenate (Concaten (None, 25, 25, 96)   0           Block35_2_Branch_0_Conv2d_1x1_Act\n","                                                                 Block35_2_Branch_1_Conv2d_0b_3x3_\n","                                                                 Block35_2_Branch_2_Conv2d_0c_3x3_\n","__________________________________________________________________________________________________\n","Block35_2_Conv2d_1x1 (Conv2D)   (None, 25, 25, 256)  24832       Block35_2_Concatenate[0][0]      \n","__________________________________________________________________________________________________\n","lambda_22 (Lambda)              (None, 25, 25, 256)  0           Block35_2_Conv2d_1x1[0][0]       \n","__________________________________________________________________________________________________\n","add_22 (Add)                    (None, 25, 25, 256)  0           Block35_1_Activation[0][0]       \n","                                                                 lambda_22[0][0]                  \n","__________________________________________________________________________________________________\n","Block35_2_Activation (Activatio (None, 25, 25, 256)  0           add_22[0][0]                     \n","__________________________________________________________________________________________________\n","Block35_3_Branch_2_Conv2d_0a_1x (None, 25, 25, 32)   8192        Block35_2_Activation[0][0]       \n","__________________________________________________________________________________________________\n","Block35_3_Branch_2_Conv2d_0a_1x (None, 25, 25, 32)   96          Block35_3_Branch_2_Conv2d_0a_1x1[\n","__________________________________________________________________________________________________\n","Block35_3_Branch_2_Conv2d_0a_1x (None, 25, 25, 32)   0           Block35_3_Branch_2_Conv2d_0a_1x1_\n","__________________________________________________________________________________________________\n","Block35_3_Branch_1_Conv2d_0a_1x (None, 25, 25, 32)   8192        Block35_2_Activation[0][0]       \n","__________________________________________________________________________________________________\n","Block35_3_Branch_2_Conv2d_0b_3x (None, 25, 25, 32)   9216        Block35_3_Branch_2_Conv2d_0a_1x1_\n","__________________________________________________________________________________________________\n","Block35_3_Branch_1_Conv2d_0a_1x (None, 25, 25, 32)   96          Block35_3_Branch_1_Conv2d_0a_1x1[\n","__________________________________________________________________________________________________\n","Block35_3_Branch_2_Conv2d_0b_3x (None, 25, 25, 32)   96          Block35_3_Branch_2_Conv2d_0b_3x3[\n","__________________________________________________________________________________________________\n","Block35_3_Branch_1_Conv2d_0a_1x (None, 25, 25, 32)   0           Block35_3_Branch_1_Conv2d_0a_1x1_\n","__________________________________________________________________________________________________\n","Block35_3_Branch_2_Conv2d_0b_3x (None, 25, 25, 32)   0           Block35_3_Branch_2_Conv2d_0b_3x3_\n","__________________________________________________________________________________________________\n","Block35_3_Branch_0_Conv2d_1x1 ( (None, 25, 25, 32)   8192        Block35_2_Activation[0][0]       \n","__________________________________________________________________________________________________\n","Block35_3_Branch_1_Conv2d_0b_3x (None, 25, 25, 32)   9216        Block35_3_Branch_1_Conv2d_0a_1x1_\n","__________________________________________________________________________________________________\n","Block35_3_Branch_2_Conv2d_0c_3x (None, 25, 25, 32)   9216        Block35_3_Branch_2_Conv2d_0b_3x3_\n","__________________________________________________________________________________________________\n","Block35_3_Branch_0_Conv2d_1x1_B (None, 25, 25, 32)   96          Block35_3_Branch_0_Conv2d_1x1[0][\n","__________________________________________________________________________________________________\n","Block35_3_Branch_1_Conv2d_0b_3x (None, 25, 25, 32)   96          Block35_3_Branch_1_Conv2d_0b_3x3[\n","__________________________________________________________________________________________________\n","Block35_3_Branch_2_Conv2d_0c_3x (None, 25, 25, 32)   96          Block35_3_Branch_2_Conv2d_0c_3x3[\n","__________________________________________________________________________________________________\n","Block35_3_Branch_0_Conv2d_1x1_A (None, 25, 25, 32)   0           Block35_3_Branch_0_Conv2d_1x1_Bat\n","__________________________________________________________________________________________________\n","Block35_3_Branch_1_Conv2d_0b_3x (None, 25, 25, 32)   0           Block35_3_Branch_1_Conv2d_0b_3x3_\n","__________________________________________________________________________________________________\n","Block35_3_Branch_2_Conv2d_0c_3x (None, 25, 25, 32)   0           Block35_3_Branch_2_Conv2d_0c_3x3_\n","__________________________________________________________________________________________________\n","Block35_3_Concatenate (Concaten (None, 25, 25, 96)   0           Block35_3_Branch_0_Conv2d_1x1_Act\n","                                                                 Block35_3_Branch_1_Conv2d_0b_3x3_\n","                                                                 Block35_3_Branch_2_Conv2d_0c_3x3_\n","__________________________________________________________________________________________________\n","Block35_3_Conv2d_1x1 (Conv2D)   (None, 25, 25, 256)  24832       Block35_3_Concatenate[0][0]      \n","__________________________________________________________________________________________________\n","lambda_23 (Lambda)              (None, 25, 25, 256)  0           Block35_3_Conv2d_1x1[0][0]       \n","__________________________________________________________________________________________________\n","add_23 (Add)                    (None, 25, 25, 256)  0           Block35_2_Activation[0][0]       \n","                                                                 lambda_23[0][0]                  \n","__________________________________________________________________________________________________\n","Block35_3_Activation (Activatio (None, 25, 25, 256)  0           add_23[0][0]                     \n","__________________________________________________________________________________________________\n","Block35_4_Branch_2_Conv2d_0a_1x (None, 25, 25, 32)   8192        Block35_3_Activation[0][0]       \n","__________________________________________________________________________________________________\n","Block35_4_Branch_2_Conv2d_0a_1x (None, 25, 25, 32)   96          Block35_4_Branch_2_Conv2d_0a_1x1[\n","__________________________________________________________________________________________________\n","Block35_4_Branch_2_Conv2d_0a_1x (None, 25, 25, 32)   0           Block35_4_Branch_2_Conv2d_0a_1x1_\n","__________________________________________________________________________________________________\n","Block35_4_Branch_1_Conv2d_0a_1x (None, 25, 25, 32)   8192        Block35_3_Activation[0][0]       \n","__________________________________________________________________________________________________\n","Block35_4_Branch_2_Conv2d_0b_3x (None, 25, 25, 32)   9216        Block35_4_Branch_2_Conv2d_0a_1x1_\n","__________________________________________________________________________________________________\n","Block35_4_Branch_1_Conv2d_0a_1x (None, 25, 25, 32)   96          Block35_4_Branch_1_Conv2d_0a_1x1[\n","__________________________________________________________________________________________________\n","Block35_4_Branch_2_Conv2d_0b_3x (None, 25, 25, 32)   96          Block35_4_Branch_2_Conv2d_0b_3x3[\n","__________________________________________________________________________________________________\n","Block35_4_Branch_1_Conv2d_0a_1x (None, 25, 25, 32)   0           Block35_4_Branch_1_Conv2d_0a_1x1_\n","__________________________________________________________________________________________________\n","Block35_4_Branch_2_Conv2d_0b_3x (None, 25, 25, 32)   0           Block35_4_Branch_2_Conv2d_0b_3x3_\n","__________________________________________________________________________________________________\n","Block35_4_Branch_0_Conv2d_1x1 ( (None, 25, 25, 32)   8192        Block35_3_Activation[0][0]       \n","__________________________________________________________________________________________________\n","Block35_4_Branch_1_Conv2d_0b_3x (None, 25, 25, 32)   9216        Block35_4_Branch_1_Conv2d_0a_1x1_\n","__________________________________________________________________________________________________\n","Block35_4_Branch_2_Conv2d_0c_3x (None, 25, 25, 32)   9216        Block35_4_Branch_2_Conv2d_0b_3x3_\n","__________________________________________________________________________________________________\n","Block35_4_Branch_0_Conv2d_1x1_B (None, 25, 25, 32)   96          Block35_4_Branch_0_Conv2d_1x1[0][\n","__________________________________________________________________________________________________\n","Block35_4_Branch_1_Conv2d_0b_3x (None, 25, 25, 32)   96          Block35_4_Branch_1_Conv2d_0b_3x3[\n","__________________________________________________________________________________________________\n","Block35_4_Branch_2_Conv2d_0c_3x (None, 25, 25, 32)   96          Block35_4_Branch_2_Conv2d_0c_3x3[\n","__________________________________________________________________________________________________\n","Block35_4_Branch_0_Conv2d_1x1_A (None, 25, 25, 32)   0           Block35_4_Branch_0_Conv2d_1x1_Bat\n","__________________________________________________________________________________________________\n","Block35_4_Branch_1_Conv2d_0b_3x (None, 25, 25, 32)   0           Block35_4_Branch_1_Conv2d_0b_3x3_\n","__________________________________________________________________________________________________\n","Block35_4_Branch_2_Conv2d_0c_3x (None, 25, 25, 32)   0           Block35_4_Branch_2_Conv2d_0c_3x3_\n","__________________________________________________________________________________________________\n","Block35_4_Concatenate (Concaten (None, 25, 25, 96)   0           Block35_4_Branch_0_Conv2d_1x1_Act\n","                                                                 Block35_4_Branch_1_Conv2d_0b_3x3_\n","                                                                 Block35_4_Branch_2_Conv2d_0c_3x3_\n","__________________________________________________________________________________________________\n","Block35_4_Conv2d_1x1 (Conv2D)   (None, 25, 25, 256)  24832       Block35_4_Concatenate[0][0]      \n","__________________________________________________________________________________________________\n","lambda_24 (Lambda)              (None, 25, 25, 256)  0           Block35_4_Conv2d_1x1[0][0]       \n","__________________________________________________________________________________________________\n","add_24 (Add)                    (None, 25, 25, 256)  0           Block35_3_Activation[0][0]       \n","                                                                 lambda_24[0][0]                  \n","__________________________________________________________________________________________________\n","Block35_4_Activation (Activatio (None, 25, 25, 256)  0           add_24[0][0]                     \n","__________________________________________________________________________________________________\n","Block35_5_Branch_2_Conv2d_0a_1x (None, 25, 25, 32)   8192        Block35_4_Activation[0][0]       \n","__________________________________________________________________________________________________\n","Block35_5_Branch_2_Conv2d_0a_1x (None, 25, 25, 32)   96          Block35_5_Branch_2_Conv2d_0a_1x1[\n","__________________________________________________________________________________________________\n","Block35_5_Branch_2_Conv2d_0a_1x (None, 25, 25, 32)   0           Block35_5_Branch_2_Conv2d_0a_1x1_\n","__________________________________________________________________________________________________\n","Block35_5_Branch_1_Conv2d_0a_1x (None, 25, 25, 32)   8192        Block35_4_Activation[0][0]       \n","__________________________________________________________________________________________________\n","Block35_5_Branch_2_Conv2d_0b_3x (None, 25, 25, 32)   9216        Block35_5_Branch_2_Conv2d_0a_1x1_\n","__________________________________________________________________________________________________\n","Block35_5_Branch_1_Conv2d_0a_1x (None, 25, 25, 32)   96          Block35_5_Branch_1_Conv2d_0a_1x1[\n","__________________________________________________________________________________________________\n","Block35_5_Branch_2_Conv2d_0b_3x (None, 25, 25, 32)   96          Block35_5_Branch_2_Conv2d_0b_3x3[\n","__________________________________________________________________________________________________\n","Block35_5_Branch_1_Conv2d_0a_1x (None, 25, 25, 32)   0           Block35_5_Branch_1_Conv2d_0a_1x1_\n","__________________________________________________________________________________________________\n","Block35_5_Branch_2_Conv2d_0b_3x (None, 25, 25, 32)   0           Block35_5_Branch_2_Conv2d_0b_3x3_\n","__________________________________________________________________________________________________\n","Block35_5_Branch_0_Conv2d_1x1 ( (None, 25, 25, 32)   8192        Block35_4_Activation[0][0]       \n","__________________________________________________________________________________________________\n","Block35_5_Branch_1_Conv2d_0b_3x (None, 25, 25, 32)   9216        Block35_5_Branch_1_Conv2d_0a_1x1_\n","__________________________________________________________________________________________________\n","Block35_5_Branch_2_Conv2d_0c_3x (None, 25, 25, 32)   9216        Block35_5_Branch_2_Conv2d_0b_3x3_\n","__________________________________________________________________________________________________\n","Block35_5_Branch_0_Conv2d_1x1_B (None, 25, 25, 32)   96          Block35_5_Branch_0_Conv2d_1x1[0][\n","__________________________________________________________________________________________________\n","Block35_5_Branch_1_Conv2d_0b_3x (None, 25, 25, 32)   96          Block35_5_Branch_1_Conv2d_0b_3x3[\n","__________________________________________________________________________________________________\n","Block35_5_Branch_2_Conv2d_0c_3x (None, 25, 25, 32)   96          Block35_5_Branch_2_Conv2d_0c_3x3[\n","__________________________________________________________________________________________________\n","Block35_5_Branch_0_Conv2d_1x1_A (None, 25, 25, 32)   0           Block35_5_Branch_0_Conv2d_1x1_Bat\n","__________________________________________________________________________________________________\n","Block35_5_Branch_1_Conv2d_0b_3x (None, 25, 25, 32)   0           Block35_5_Branch_1_Conv2d_0b_3x3_\n","__________________________________________________________________________________________________\n","Block35_5_Branch_2_Conv2d_0c_3x (None, 25, 25, 32)   0           Block35_5_Branch_2_Conv2d_0c_3x3_\n","__________________________________________________________________________________________________\n","Block35_5_Concatenate (Concaten (None, 25, 25, 96)   0           Block35_5_Branch_0_Conv2d_1x1_Act\n","                                                                 Block35_5_Branch_1_Conv2d_0b_3x3_\n","                                                                 Block35_5_Branch_2_Conv2d_0c_3x3_\n","__________________________________________________________________________________________________\n","Block35_5_Conv2d_1x1 (Conv2D)   (None, 25, 25, 256)  24832       Block35_5_Concatenate[0][0]      \n","__________________________________________________________________________________________________\n","lambda_25 (Lambda)              (None, 25, 25, 256)  0           Block35_5_Conv2d_1x1[0][0]       \n","__________________________________________________________________________________________________\n","add_25 (Add)                    (None, 25, 25, 256)  0           Block35_4_Activation[0][0]       \n","                                                                 lambda_25[0][0]                  \n","__________________________________________________________________________________________________\n","Block35_5_Activation (Activatio (None, 25, 25, 256)  0           add_25[0][0]                     \n","__________________________________________________________________________________________________\n","Mixed_6a_Branch_1_Conv2d_0a_1x1 (None, 25, 25, 192)  49152       Block35_5_Activation[0][0]       \n","__________________________________________________________________________________________________\n","Mixed_6a_Branch_1_Conv2d_0a_1x1 (None, 25, 25, 192)  576         Mixed_6a_Branch_1_Conv2d_0a_1x1[0\n","__________________________________________________________________________________________________\n","Mixed_6a_Branch_1_Conv2d_0a_1x1 (None, 25, 25, 192)  0           Mixed_6a_Branch_1_Conv2d_0a_1x1_B\n","__________________________________________________________________________________________________\n","Mixed_6a_Branch_1_Conv2d_0b_3x3 (None, 25, 25, 192)  331776      Mixed_6a_Branch_1_Conv2d_0a_1x1_A\n","__________________________________________________________________________________________________\n","Mixed_6a_Branch_1_Conv2d_0b_3x3 (None, 25, 25, 192)  576         Mixed_6a_Branch_1_Conv2d_0b_3x3[0\n","__________________________________________________________________________________________________\n","Mixed_6a_Branch_1_Conv2d_0b_3x3 (None, 25, 25, 192)  0           Mixed_6a_Branch_1_Conv2d_0b_3x3_B\n","__________________________________________________________________________________________________\n","Mixed_6a_Branch_0_Conv2d_1a_3x3 (None, 12, 12, 384)  884736      Block35_5_Activation[0][0]       \n","__________________________________________________________________________________________________\n","Mixed_6a_Branch_1_Conv2d_1a_3x3 (None, 12, 12, 256)  442368      Mixed_6a_Branch_1_Conv2d_0b_3x3_A\n","__________________________________________________________________________________________________\n","Mixed_6a_Branch_0_Conv2d_1a_3x3 (None, 12, 12, 384)  1152        Mixed_6a_Branch_0_Conv2d_1a_3x3[0\n","__________________________________________________________________________________________________\n","Mixed_6a_Branch_1_Conv2d_1a_3x3 (None, 12, 12, 256)  768         Mixed_6a_Branch_1_Conv2d_1a_3x3[0\n","__________________________________________________________________________________________________\n","Mixed_6a_Branch_0_Conv2d_1a_3x3 (None, 12, 12, 384)  0           Mixed_6a_Branch_0_Conv2d_1a_3x3_B\n","__________________________________________________________________________________________________\n","Mixed_6a_Branch_1_Conv2d_1a_3x3 (None, 12, 12, 256)  0           Mixed_6a_Branch_1_Conv2d_1a_3x3_B\n","__________________________________________________________________________________________________\n","Mixed_6a_Branch_2_MaxPool_1a_3x (None, 12, 12, 256)  0           Block35_5_Activation[0][0]       \n","__________________________________________________________________________________________________\n","Mixed_6a (Concatenate)          (None, 12, 12, 896)  0           Mixed_6a_Branch_0_Conv2d_1a_3x3_A\n","                                                                 Mixed_6a_Branch_1_Conv2d_1a_3x3_A\n","                                                                 Mixed_6a_Branch_2_MaxPool_1a_3x3[\n","__________________________________________________________________________________________________\n","Block17_1_Branch_1_Conv2d_0a_1x (None, 12, 12, 128)  114688      Mixed_6a[0][0]                   \n","__________________________________________________________________________________________________\n","Block17_1_Branch_1_Conv2d_0a_1x (None, 12, 12, 128)  384         Block17_1_Branch_1_Conv2d_0a_1x1[\n","__________________________________________________________________________________________________\n","Block17_1_Branch_1_Conv2d_0a_1x (None, 12, 12, 128)  0           Block17_1_Branch_1_Conv2d_0a_1x1_\n","__________________________________________________________________________________________________\n","Block17_1_Branch_1_Conv2d_0b_1x (None, 12, 12, 128)  114688      Block17_1_Branch_1_Conv2d_0a_1x1_\n","__________________________________________________________________________________________________\n","Block17_1_Branch_1_Conv2d_0b_1x (None, 12, 12, 128)  384         Block17_1_Branch_1_Conv2d_0b_1x7[\n","__________________________________________________________________________________________________\n","Block17_1_Branch_1_Conv2d_0b_1x (None, 12, 12, 128)  0           Block17_1_Branch_1_Conv2d_0b_1x7_\n","__________________________________________________________________________________________________\n","Block17_1_Branch_0_Conv2d_1x1 ( (None, 12, 12, 128)  114688      Mixed_6a[0][0]                   \n","__________________________________________________________________________________________________\n","Block17_1_Branch_1_Conv2d_0c_7x (None, 12, 12, 128)  114688      Block17_1_Branch_1_Conv2d_0b_1x7_\n","__________________________________________________________________________________________________\n","Block17_1_Branch_0_Conv2d_1x1_B (None, 12, 12, 128)  384         Block17_1_Branch_0_Conv2d_1x1[0][\n","__________________________________________________________________________________________________\n","Block17_1_Branch_1_Conv2d_0c_7x (None, 12, 12, 128)  384         Block17_1_Branch_1_Conv2d_0c_7x1[\n","__________________________________________________________________________________________________\n","Block17_1_Branch_0_Conv2d_1x1_A (None, 12, 12, 128)  0           Block17_1_Branch_0_Conv2d_1x1_Bat\n","__________________________________________________________________________________________________\n","Block17_1_Branch_1_Conv2d_0c_7x (None, 12, 12, 128)  0           Block17_1_Branch_1_Conv2d_0c_7x1_\n","__________________________________________________________________________________________________\n","Block17_1_Concatenate (Concaten (None, 12, 12, 256)  0           Block17_1_Branch_0_Conv2d_1x1_Act\n","                                                                 Block17_1_Branch_1_Conv2d_0c_7x1_\n","__________________________________________________________________________________________________\n","Block17_1_Conv2d_1x1 (Conv2D)   (None, 12, 12, 896)  230272      Block17_1_Concatenate[0][0]      \n","__________________________________________________________________________________________________\n","lambda_26 (Lambda)              (None, 12, 12, 896)  0           Block17_1_Conv2d_1x1[0][0]       \n","__________________________________________________________________________________________________\n","add_26 (Add)                    (None, 12, 12, 896)  0           Mixed_6a[0][0]                   \n","                                                                 lambda_26[0][0]                  \n","__________________________________________________________________________________________________\n","Block17_1_Activation (Activatio (None, 12, 12, 896)  0           add_26[0][0]                     \n","__________________________________________________________________________________________________\n","Block17_2_Branch_1_Conv2d_0a_1x (None, 12, 12, 128)  114688      Block17_1_Activation[0][0]       \n","__________________________________________________________________________________________________\n","Block17_2_Branch_1_Conv2d_0a_1x (None, 12, 12, 128)  384         Block17_2_Branch_1_Conv2d_0a_1x1[\n","__________________________________________________________________________________________________\n","Block17_2_Branch_1_Conv2d_0a_1x (None, 12, 12, 128)  0           Block17_2_Branch_1_Conv2d_0a_1x1_\n","__________________________________________________________________________________________________\n","Block17_2_Branch_1_Conv2d_0b_1x (None, 12, 12, 128)  114688      Block17_2_Branch_1_Conv2d_0a_1x1_\n","__________________________________________________________________________________________________\n","Block17_2_Branch_1_Conv2d_0b_1x (None, 12, 12, 128)  384         Block17_2_Branch_1_Conv2d_0b_1x7[\n","__________________________________________________________________________________________________\n","Block17_2_Branch_1_Conv2d_0b_1x (None, 12, 12, 128)  0           Block17_2_Branch_1_Conv2d_0b_1x7_\n","__________________________________________________________________________________________________\n","Block17_2_Branch_0_Conv2d_1x1 ( (None, 12, 12, 128)  114688      Block17_1_Activation[0][0]       \n","__________________________________________________________________________________________________\n","Block17_2_Branch_1_Conv2d_0c_7x (None, 12, 12, 128)  114688      Block17_2_Branch_1_Conv2d_0b_1x7_\n","__________________________________________________________________________________________________\n","Block17_2_Branch_0_Conv2d_1x1_B (None, 12, 12, 128)  384         Block17_2_Branch_0_Conv2d_1x1[0][\n","__________________________________________________________________________________________________\n","Block17_2_Branch_1_Conv2d_0c_7x (None, 12, 12, 128)  384         Block17_2_Branch_1_Conv2d_0c_7x1[\n","__________________________________________________________________________________________________\n","Block17_2_Branch_0_Conv2d_1x1_A (None, 12, 12, 128)  0           Block17_2_Branch_0_Conv2d_1x1_Bat\n","__________________________________________________________________________________________________\n","Block17_2_Branch_1_Conv2d_0c_7x (None, 12, 12, 128)  0           Block17_2_Branch_1_Conv2d_0c_7x1_\n","__________________________________________________________________________________________________\n","Block17_2_Concatenate (Concaten (None, 12, 12, 256)  0           Block17_2_Branch_0_Conv2d_1x1_Act\n","                                                                 Block17_2_Branch_1_Conv2d_0c_7x1_\n","__________________________________________________________________________________________________\n","Block17_2_Conv2d_1x1 (Conv2D)   (None, 12, 12, 896)  230272      Block17_2_Concatenate[0][0]      \n","__________________________________________________________________________________________________\n","lambda_27 (Lambda)              (None, 12, 12, 896)  0           Block17_2_Conv2d_1x1[0][0]       \n","__________________________________________________________________________________________________\n","add_27 (Add)                    (None, 12, 12, 896)  0           Block17_1_Activation[0][0]       \n","                                                                 lambda_27[0][0]                  \n","__________________________________________________________________________________________________\n","Block17_2_Activation (Activatio (None, 12, 12, 896)  0           add_27[0][0]                     \n","__________________________________________________________________________________________________\n","Block17_3_Branch_1_Conv2d_0a_1x (None, 12, 12, 128)  114688      Block17_2_Activation[0][0]       \n","__________________________________________________________________________________________________\n","Block17_3_Branch_1_Conv2d_0a_1x (None, 12, 12, 128)  384         Block17_3_Branch_1_Conv2d_0a_1x1[\n","__________________________________________________________________________________________________\n","Block17_3_Branch_1_Conv2d_0a_1x (None, 12, 12, 128)  0           Block17_3_Branch_1_Conv2d_0a_1x1_\n","__________________________________________________________________________________________________\n","Block17_3_Branch_1_Conv2d_0b_1x (None, 12, 12, 128)  114688      Block17_3_Branch_1_Conv2d_0a_1x1_\n","__________________________________________________________________________________________________\n","Block17_3_Branch_1_Conv2d_0b_1x (None, 12, 12, 128)  384         Block17_3_Branch_1_Conv2d_0b_1x7[\n","__________________________________________________________________________________________________\n","Block17_3_Branch_1_Conv2d_0b_1x (None, 12, 12, 128)  0           Block17_3_Branch_1_Conv2d_0b_1x7_\n","__________________________________________________________________________________________________\n","Block17_3_Branch_0_Conv2d_1x1 ( (None, 12, 12, 128)  114688      Block17_2_Activation[0][0]       \n","__________________________________________________________________________________________________\n","Block17_3_Branch_1_Conv2d_0c_7x (None, 12, 12, 128)  114688      Block17_3_Branch_1_Conv2d_0b_1x7_\n","__________________________________________________________________________________________________\n","Block17_3_Branch_0_Conv2d_1x1_B (None, 12, 12, 128)  384         Block17_3_Branch_0_Conv2d_1x1[0][\n","__________________________________________________________________________________________________\n","Block17_3_Branch_1_Conv2d_0c_7x (None, 12, 12, 128)  384         Block17_3_Branch_1_Conv2d_0c_7x1[\n","__________________________________________________________________________________________________\n","Block17_3_Branch_0_Conv2d_1x1_A (None, 12, 12, 128)  0           Block17_3_Branch_0_Conv2d_1x1_Bat\n","__________________________________________________________________________________________________\n","Block17_3_Branch_1_Conv2d_0c_7x (None, 12, 12, 128)  0           Block17_3_Branch_1_Conv2d_0c_7x1_\n","__________________________________________________________________________________________________\n","Block17_3_Concatenate (Concaten (None, 12, 12, 256)  0           Block17_3_Branch_0_Conv2d_1x1_Act\n","                                                                 Block17_3_Branch_1_Conv2d_0c_7x1_\n","__________________________________________________________________________________________________\n","Block17_3_Conv2d_1x1 (Conv2D)   (None, 12, 12, 896)  230272      Block17_3_Concatenate[0][0]      \n","__________________________________________________________________________________________________\n","lambda_28 (Lambda)              (None, 12, 12, 896)  0           Block17_3_Conv2d_1x1[0][0]       \n","__________________________________________________________________________________________________\n","add_28 (Add)                    (None, 12, 12, 896)  0           Block17_2_Activation[0][0]       \n","                                                                 lambda_28[0][0]                  \n","__________________________________________________________________________________________________\n","Block17_3_Activation (Activatio (None, 12, 12, 896)  0           add_28[0][0]                     \n","__________________________________________________________________________________________________\n","Block17_4_Branch_1_Conv2d_0a_1x (None, 12, 12, 128)  114688      Block17_3_Activation[0][0]       \n","__________________________________________________________________________________________________\n","Block17_4_Branch_1_Conv2d_0a_1x (None, 12, 12, 128)  384         Block17_4_Branch_1_Conv2d_0a_1x1[\n","__________________________________________________________________________________________________\n","Block17_4_Branch_1_Conv2d_0a_1x (None, 12, 12, 128)  0           Block17_4_Branch_1_Conv2d_0a_1x1_\n","__________________________________________________________________________________________________\n","Block17_4_Branch_1_Conv2d_0b_1x (None, 12, 12, 128)  114688      Block17_4_Branch_1_Conv2d_0a_1x1_\n","__________________________________________________________________________________________________\n","Block17_4_Branch_1_Conv2d_0b_1x (None, 12, 12, 128)  384         Block17_4_Branch_1_Conv2d_0b_1x7[\n","__________________________________________________________________________________________________\n","Block17_4_Branch_1_Conv2d_0b_1x (None, 12, 12, 128)  0           Block17_4_Branch_1_Conv2d_0b_1x7_\n","__________________________________________________________________________________________________\n","Block17_4_Branch_0_Conv2d_1x1 ( (None, 12, 12, 128)  114688      Block17_3_Activation[0][0]       \n","__________________________________________________________________________________________________\n","Block17_4_Branch_1_Conv2d_0c_7x (None, 12, 12, 128)  114688      Block17_4_Branch_1_Conv2d_0b_1x7_\n","__________________________________________________________________________________________________\n","Block17_4_Branch_0_Conv2d_1x1_B (None, 12, 12, 128)  384         Block17_4_Branch_0_Conv2d_1x1[0][\n","__________________________________________________________________________________________________\n","Block17_4_Branch_1_Conv2d_0c_7x (None, 12, 12, 128)  384         Block17_4_Branch_1_Conv2d_0c_7x1[\n","__________________________________________________________________________________________________\n","Block17_4_Branch_0_Conv2d_1x1_A (None, 12, 12, 128)  0           Block17_4_Branch_0_Conv2d_1x1_Bat\n","__________________________________________________________________________________________________\n","Block17_4_Branch_1_Conv2d_0c_7x (None, 12, 12, 128)  0           Block17_4_Branch_1_Conv2d_0c_7x1_\n","__________________________________________________________________________________________________\n","Block17_4_Concatenate (Concaten (None, 12, 12, 256)  0           Block17_4_Branch_0_Conv2d_1x1_Act\n","                                                                 Block17_4_Branch_1_Conv2d_0c_7x1_\n","__________________________________________________________________________________________________\n","Block17_4_Conv2d_1x1 (Conv2D)   (None, 12, 12, 896)  230272      Block17_4_Concatenate[0][0]      \n","__________________________________________________________________________________________________\n","lambda_29 (Lambda)              (None, 12, 12, 896)  0           Block17_4_Conv2d_1x1[0][0]       \n","__________________________________________________________________________________________________\n","add_29 (Add)                    (None, 12, 12, 896)  0           Block17_3_Activation[0][0]       \n","                                                                 lambda_29[0][0]                  \n","__________________________________________________________________________________________________\n","Block17_4_Activation (Activatio (None, 12, 12, 896)  0           add_29[0][0]                     \n","__________________________________________________________________________________________________\n","Block17_5_Branch_1_Conv2d_0a_1x (None, 12, 12, 128)  114688      Block17_4_Activation[0][0]       \n","__________________________________________________________________________________________________\n","Block17_5_Branch_1_Conv2d_0a_1x (None, 12, 12, 128)  384         Block17_5_Branch_1_Conv2d_0a_1x1[\n","__________________________________________________________________________________________________\n","Block17_5_Branch_1_Conv2d_0a_1x (None, 12, 12, 128)  0           Block17_5_Branch_1_Conv2d_0a_1x1_\n","__________________________________________________________________________________________________\n","Block17_5_Branch_1_Conv2d_0b_1x (None, 12, 12, 128)  114688      Block17_5_Branch_1_Conv2d_0a_1x1_\n","__________________________________________________________________________________________________\n","Block17_5_Branch_1_Conv2d_0b_1x (None, 12, 12, 128)  384         Block17_5_Branch_1_Conv2d_0b_1x7[\n","__________________________________________________________________________________________________\n","Block17_5_Branch_1_Conv2d_0b_1x (None, 12, 12, 128)  0           Block17_5_Branch_1_Conv2d_0b_1x7_\n","__________________________________________________________________________________________________\n","Block17_5_Branch_0_Conv2d_1x1 ( (None, 12, 12, 128)  114688      Block17_4_Activation[0][0]       \n","__________________________________________________________________________________________________\n","Block17_5_Branch_1_Conv2d_0c_7x (None, 12, 12, 128)  114688      Block17_5_Branch_1_Conv2d_0b_1x7_\n","__________________________________________________________________________________________________\n","Block17_5_Branch_0_Conv2d_1x1_B (None, 12, 12, 128)  384         Block17_5_Branch_0_Conv2d_1x1[0][\n","__________________________________________________________________________________________________\n","Block17_5_Branch_1_Conv2d_0c_7x (None, 12, 12, 128)  384         Block17_5_Branch_1_Conv2d_0c_7x1[\n","__________________________________________________________________________________________________\n","Block17_5_Branch_0_Conv2d_1x1_A (None, 12, 12, 128)  0           Block17_5_Branch_0_Conv2d_1x1_Bat\n","__________________________________________________________________________________________________\n","Block17_5_Branch_1_Conv2d_0c_7x (None, 12, 12, 128)  0           Block17_5_Branch_1_Conv2d_0c_7x1_\n","__________________________________________________________________________________________________\n","Block17_5_Concatenate (Concaten (None, 12, 12, 256)  0           Block17_5_Branch_0_Conv2d_1x1_Act\n","                                                                 Block17_5_Branch_1_Conv2d_0c_7x1_\n","__________________________________________________________________________________________________\n","Block17_5_Conv2d_1x1 (Conv2D)   (None, 12, 12, 896)  230272      Block17_5_Concatenate[0][0]      \n","__________________________________________________________________________________________________\n","lambda_30 (Lambda)              (None, 12, 12, 896)  0           Block17_5_Conv2d_1x1[0][0]       \n","__________________________________________________________________________________________________\n","add_30 (Add)                    (None, 12, 12, 896)  0           Block17_4_Activation[0][0]       \n","                                                                 lambda_30[0][0]                  \n","__________________________________________________________________________________________________\n","Block17_5_Activation (Activatio (None, 12, 12, 896)  0           add_30[0][0]                     \n","__________________________________________________________________________________________________\n","Block17_6_Branch_1_Conv2d_0a_1x (None, 12, 12, 128)  114688      Block17_5_Activation[0][0]       \n","__________________________________________________________________________________________________\n","Block17_6_Branch_1_Conv2d_0a_1x (None, 12, 12, 128)  384         Block17_6_Branch_1_Conv2d_0a_1x1[\n","__________________________________________________________________________________________________\n","Block17_6_Branch_1_Conv2d_0a_1x (None, 12, 12, 128)  0           Block17_6_Branch_1_Conv2d_0a_1x1_\n","__________________________________________________________________________________________________\n","Block17_6_Branch_1_Conv2d_0b_1x (None, 12, 12, 128)  114688      Block17_6_Branch_1_Conv2d_0a_1x1_\n","__________________________________________________________________________________________________\n","Block17_6_Branch_1_Conv2d_0b_1x (None, 12, 12, 128)  384         Block17_6_Branch_1_Conv2d_0b_1x7[\n","__________________________________________________________________________________________________\n","Block17_6_Branch_1_Conv2d_0b_1x (None, 12, 12, 128)  0           Block17_6_Branch_1_Conv2d_0b_1x7_\n","__________________________________________________________________________________________________\n","Block17_6_Branch_0_Conv2d_1x1 ( (None, 12, 12, 128)  114688      Block17_5_Activation[0][0]       \n","__________________________________________________________________________________________________\n","Block17_6_Branch_1_Conv2d_0c_7x (None, 12, 12, 128)  114688      Block17_6_Branch_1_Conv2d_0b_1x7_\n","__________________________________________________________________________________________________\n","Block17_6_Branch_0_Conv2d_1x1_B (None, 12, 12, 128)  384         Block17_6_Branch_0_Conv2d_1x1[0][\n","__________________________________________________________________________________________________\n","Block17_6_Branch_1_Conv2d_0c_7x (None, 12, 12, 128)  384         Block17_6_Branch_1_Conv2d_0c_7x1[\n","__________________________________________________________________________________________________\n","Block17_6_Branch_0_Conv2d_1x1_A (None, 12, 12, 128)  0           Block17_6_Branch_0_Conv2d_1x1_Bat\n","__________________________________________________________________________________________________\n","Block17_6_Branch_1_Conv2d_0c_7x (None, 12, 12, 128)  0           Block17_6_Branch_1_Conv2d_0c_7x1_\n","__________________________________________________________________________________________________\n","Block17_6_Concatenate (Concaten (None, 12, 12, 256)  0           Block17_6_Branch_0_Conv2d_1x1_Act\n","                                                                 Block17_6_Branch_1_Conv2d_0c_7x1_\n","__________________________________________________________________________________________________\n","Block17_6_Conv2d_1x1 (Conv2D)   (None, 12, 12, 896)  230272      Block17_6_Concatenate[0][0]      \n","__________________________________________________________________________________________________\n","lambda_31 (Lambda)              (None, 12, 12, 896)  0           Block17_6_Conv2d_1x1[0][0]       \n","__________________________________________________________________________________________________\n","add_31 (Add)                    (None, 12, 12, 896)  0           Block17_5_Activation[0][0]       \n","                                                                 lambda_31[0][0]                  \n","__________________________________________________________________________________________________\n","Block17_6_Activation (Activatio (None, 12, 12, 896)  0           add_31[0][0]                     \n","__________________________________________________________________________________________________\n","Block17_7_Branch_1_Conv2d_0a_1x (None, 12, 12, 128)  114688      Block17_6_Activation[0][0]       \n","__________________________________________________________________________________________________\n","Block17_7_Branch_1_Conv2d_0a_1x (None, 12, 12, 128)  384         Block17_7_Branch_1_Conv2d_0a_1x1[\n","__________________________________________________________________________________________________\n","Block17_7_Branch_1_Conv2d_0a_1x (None, 12, 12, 128)  0           Block17_7_Branch_1_Conv2d_0a_1x1_\n","__________________________________________________________________________________________________\n","Block17_7_Branch_1_Conv2d_0b_1x (None, 12, 12, 128)  114688      Block17_7_Branch_1_Conv2d_0a_1x1_\n","__________________________________________________________________________________________________\n","Block17_7_Branch_1_Conv2d_0b_1x (None, 12, 12, 128)  384         Block17_7_Branch_1_Conv2d_0b_1x7[\n","__________________________________________________________________________________________________\n","Block17_7_Branch_1_Conv2d_0b_1x (None, 12, 12, 128)  0           Block17_7_Branch_1_Conv2d_0b_1x7_\n","__________________________________________________________________________________________________\n","Block17_7_Branch_0_Conv2d_1x1 ( (None, 12, 12, 128)  114688      Block17_6_Activation[0][0]       \n","__________________________________________________________________________________________________\n","Block17_7_Branch_1_Conv2d_0c_7x (None, 12, 12, 128)  114688      Block17_7_Branch_1_Conv2d_0b_1x7_\n","__________________________________________________________________________________________________\n","Block17_7_Branch_0_Conv2d_1x1_B (None, 12, 12, 128)  384         Block17_7_Branch_0_Conv2d_1x1[0][\n","__________________________________________________________________________________________________\n","Block17_7_Branch_1_Conv2d_0c_7x (None, 12, 12, 128)  384         Block17_7_Branch_1_Conv2d_0c_7x1[\n","__________________________________________________________________________________________________\n","Block17_7_Branch_0_Conv2d_1x1_A (None, 12, 12, 128)  0           Block17_7_Branch_0_Conv2d_1x1_Bat\n","__________________________________________________________________________________________________\n","Block17_7_Branch_1_Conv2d_0c_7x (None, 12, 12, 128)  0           Block17_7_Branch_1_Conv2d_0c_7x1_\n","__________________________________________________________________________________________________\n","Block17_7_Concatenate (Concaten (None, 12, 12, 256)  0           Block17_7_Branch_0_Conv2d_1x1_Act\n","                                                                 Block17_7_Branch_1_Conv2d_0c_7x1_\n","__________________________________________________________________________________________________\n","Block17_7_Conv2d_1x1 (Conv2D)   (None, 12, 12, 896)  230272      Block17_7_Concatenate[0][0]      \n","__________________________________________________________________________________________________\n","lambda_32 (Lambda)              (None, 12, 12, 896)  0           Block17_7_Conv2d_1x1[0][0]       \n","__________________________________________________________________________________________________\n","add_32 (Add)                    (None, 12, 12, 896)  0           Block17_6_Activation[0][0]       \n","                                                                 lambda_32[0][0]                  \n","__________________________________________________________________________________________________\n","Block17_7_Activation (Activatio (None, 12, 12, 896)  0           add_32[0][0]                     \n","__________________________________________________________________________________________________\n","Block17_8_Branch_1_Conv2d_0a_1x (None, 12, 12, 128)  114688      Block17_7_Activation[0][0]       \n","__________________________________________________________________________________________________\n","Block17_8_Branch_1_Conv2d_0a_1x (None, 12, 12, 128)  384         Block17_8_Branch_1_Conv2d_0a_1x1[\n","__________________________________________________________________________________________________\n","Block17_8_Branch_1_Conv2d_0a_1x (None, 12, 12, 128)  0           Block17_8_Branch_1_Conv2d_0a_1x1_\n","__________________________________________________________________________________________________\n","Block17_8_Branch_1_Conv2d_0b_1x (None, 12, 12, 128)  114688      Block17_8_Branch_1_Conv2d_0a_1x1_\n","__________________________________________________________________________________________________\n","Block17_8_Branch_1_Conv2d_0b_1x (None, 12, 12, 128)  384         Block17_8_Branch_1_Conv2d_0b_1x7[\n","__________________________________________________________________________________________________\n","Block17_8_Branch_1_Conv2d_0b_1x (None, 12, 12, 128)  0           Block17_8_Branch_1_Conv2d_0b_1x7_\n","__________________________________________________________________________________________________\n","Block17_8_Branch_0_Conv2d_1x1 ( (None, 12, 12, 128)  114688      Block17_7_Activation[0][0]       \n","__________________________________________________________________________________________________\n","Block17_8_Branch_1_Conv2d_0c_7x (None, 12, 12, 128)  114688      Block17_8_Branch_1_Conv2d_0b_1x7_\n","__________________________________________________________________________________________________\n","Block17_8_Branch_0_Conv2d_1x1_B (None, 12, 12, 128)  384         Block17_8_Branch_0_Conv2d_1x1[0][\n","__________________________________________________________________________________________________\n","Block17_8_Branch_1_Conv2d_0c_7x (None, 12, 12, 128)  384         Block17_8_Branch_1_Conv2d_0c_7x1[\n","__________________________________________________________________________________________________\n","Block17_8_Branch_0_Conv2d_1x1_A (None, 12, 12, 128)  0           Block17_8_Branch_0_Conv2d_1x1_Bat\n","__________________________________________________________________________________________________\n","Block17_8_Branch_1_Conv2d_0c_7x (None, 12, 12, 128)  0           Block17_8_Branch_1_Conv2d_0c_7x1_\n","__________________________________________________________________________________________________\n","Block17_8_Concatenate (Concaten (None, 12, 12, 256)  0           Block17_8_Branch_0_Conv2d_1x1_Act\n","                                                                 Block17_8_Branch_1_Conv2d_0c_7x1_\n","__________________________________________________________________________________________________\n","Block17_8_Conv2d_1x1 (Conv2D)   (None, 12, 12, 896)  230272      Block17_8_Concatenate[0][0]      \n","__________________________________________________________________________________________________\n","lambda_33 (Lambda)              (None, 12, 12, 896)  0           Block17_8_Conv2d_1x1[0][0]       \n","__________________________________________________________________________________________________\n","add_33 (Add)                    (None, 12, 12, 896)  0           Block17_7_Activation[0][0]       \n","                                                                 lambda_33[0][0]                  \n","__________________________________________________________________________________________________\n","Block17_8_Activation (Activatio (None, 12, 12, 896)  0           add_33[0][0]                     \n","__________________________________________________________________________________________________\n","Block17_9_Branch_1_Conv2d_0a_1x (None, 12, 12, 128)  114688      Block17_8_Activation[0][0]       \n","__________________________________________________________________________________________________\n","Block17_9_Branch_1_Conv2d_0a_1x (None, 12, 12, 128)  384         Block17_9_Branch_1_Conv2d_0a_1x1[\n","__________________________________________________________________________________________________\n","Block17_9_Branch_1_Conv2d_0a_1x (None, 12, 12, 128)  0           Block17_9_Branch_1_Conv2d_0a_1x1_\n","__________________________________________________________________________________________________\n","Block17_9_Branch_1_Conv2d_0b_1x (None, 12, 12, 128)  114688      Block17_9_Branch_1_Conv2d_0a_1x1_\n","__________________________________________________________________________________________________\n","Block17_9_Branch_1_Conv2d_0b_1x (None, 12, 12, 128)  384         Block17_9_Branch_1_Conv2d_0b_1x7[\n","__________________________________________________________________________________________________\n","Block17_9_Branch_1_Conv2d_0b_1x (None, 12, 12, 128)  0           Block17_9_Branch_1_Conv2d_0b_1x7_\n","__________________________________________________________________________________________________\n","Block17_9_Branch_0_Conv2d_1x1 ( (None, 12, 12, 128)  114688      Block17_8_Activation[0][0]       \n","__________________________________________________________________________________________________\n","Block17_9_Branch_1_Conv2d_0c_7x (None, 12, 12, 128)  114688      Block17_9_Branch_1_Conv2d_0b_1x7_\n","__________________________________________________________________________________________________\n","Block17_9_Branch_0_Conv2d_1x1_B (None, 12, 12, 128)  384         Block17_9_Branch_0_Conv2d_1x1[0][\n","__________________________________________________________________________________________________\n","Block17_9_Branch_1_Conv2d_0c_7x (None, 12, 12, 128)  384         Block17_9_Branch_1_Conv2d_0c_7x1[\n","__________________________________________________________________________________________________\n","Block17_9_Branch_0_Conv2d_1x1_A (None, 12, 12, 128)  0           Block17_9_Branch_0_Conv2d_1x1_Bat\n","__________________________________________________________________________________________________\n","Block17_9_Branch_1_Conv2d_0c_7x (None, 12, 12, 128)  0           Block17_9_Branch_1_Conv2d_0c_7x1_\n","__________________________________________________________________________________________________\n","Block17_9_Concatenate (Concaten (None, 12, 12, 256)  0           Block17_9_Branch_0_Conv2d_1x1_Act\n","                                                                 Block17_9_Branch_1_Conv2d_0c_7x1_\n","__________________________________________________________________________________________________\n","Block17_9_Conv2d_1x1 (Conv2D)   (None, 12, 12, 896)  230272      Block17_9_Concatenate[0][0]      \n","__________________________________________________________________________________________________\n","lambda_34 (Lambda)              (None, 12, 12, 896)  0           Block17_9_Conv2d_1x1[0][0]       \n","__________________________________________________________________________________________________\n","add_34 (Add)                    (None, 12, 12, 896)  0           Block17_8_Activation[0][0]       \n","                                                                 lambda_34[0][0]                  \n","__________________________________________________________________________________________________\n","Block17_9_Activation (Activatio (None, 12, 12, 896)  0           add_34[0][0]                     \n","__________________________________________________________________________________________________\n","Block17_10_Branch_1_Conv2d_0a_1 (None, 12, 12, 128)  114688      Block17_9_Activation[0][0]       \n","__________________________________________________________________________________________________\n","Block17_10_Branch_1_Conv2d_0a_1 (None, 12, 12, 128)  384         Block17_10_Branch_1_Conv2d_0a_1x1\n","__________________________________________________________________________________________________\n","Block17_10_Branch_1_Conv2d_0a_1 (None, 12, 12, 128)  0           Block17_10_Branch_1_Conv2d_0a_1x1\n","__________________________________________________________________________________________________\n","Block17_10_Branch_1_Conv2d_0b_1 (None, 12, 12, 128)  114688      Block17_10_Branch_1_Conv2d_0a_1x1\n","__________________________________________________________________________________________________\n","Block17_10_Branch_1_Conv2d_0b_1 (None, 12, 12, 128)  384         Block17_10_Branch_1_Conv2d_0b_1x7\n","__________________________________________________________________________________________________\n","Block17_10_Branch_1_Conv2d_0b_1 (None, 12, 12, 128)  0           Block17_10_Branch_1_Conv2d_0b_1x7\n","__________________________________________________________________________________________________\n","Block17_10_Branch_0_Conv2d_1x1  (None, 12, 12, 128)  114688      Block17_9_Activation[0][0]       \n","__________________________________________________________________________________________________\n","Block17_10_Branch_1_Conv2d_0c_7 (None, 12, 12, 128)  114688      Block17_10_Branch_1_Conv2d_0b_1x7\n","__________________________________________________________________________________________________\n","Block17_10_Branch_0_Conv2d_1x1_ (None, 12, 12, 128)  384         Block17_10_Branch_0_Conv2d_1x1[0]\n","__________________________________________________________________________________________________\n","Block17_10_Branch_1_Conv2d_0c_7 (None, 12, 12, 128)  384         Block17_10_Branch_1_Conv2d_0c_7x1\n","__________________________________________________________________________________________________\n","Block17_10_Branch_0_Conv2d_1x1_ (None, 12, 12, 128)  0           Block17_10_Branch_0_Conv2d_1x1_Ba\n","__________________________________________________________________________________________________\n","Block17_10_Branch_1_Conv2d_0c_7 (None, 12, 12, 128)  0           Block17_10_Branch_1_Conv2d_0c_7x1\n","__________________________________________________________________________________________________\n","Block17_10_Concatenate (Concate (None, 12, 12, 256)  0           Block17_10_Branch_0_Conv2d_1x1_Ac\n","                                                                 Block17_10_Branch_1_Conv2d_0c_7x1\n","__________________________________________________________________________________________________\n","Block17_10_Conv2d_1x1 (Conv2D)  (None, 12, 12, 896)  230272      Block17_10_Concatenate[0][0]     \n","__________________________________________________________________________________________________\n","lambda_35 (Lambda)              (None, 12, 12, 896)  0           Block17_10_Conv2d_1x1[0][0]      \n","__________________________________________________________________________________________________\n","add_35 (Add)                    (None, 12, 12, 896)  0           Block17_9_Activation[0][0]       \n","                                                                 lambda_35[0][0]                  \n","__________________________________________________________________________________________________\n","Block17_10_Activation (Activati (None, 12, 12, 896)  0           add_35[0][0]                     \n","__________________________________________________________________________________________________\n","Mixed_7a_Branch_2_Conv2d_0a_1x1 (None, 12, 12, 256)  229376      Block17_10_Activation[0][0]      \n","__________________________________________________________________________________________________\n","Mixed_7a_Branch_2_Conv2d_0a_1x1 (None, 12, 12, 256)  768         Mixed_7a_Branch_2_Conv2d_0a_1x1[0\n","__________________________________________________________________________________________________\n","Mixed_7a_Branch_2_Conv2d_0a_1x1 (None, 12, 12, 256)  0           Mixed_7a_Branch_2_Conv2d_0a_1x1_B\n","__________________________________________________________________________________________________\n","Mixed_7a_Branch_0_Conv2d_0a_1x1 (None, 12, 12, 256)  229376      Block17_10_Activation[0][0]      \n","__________________________________________________________________________________________________\n","Mixed_7a_Branch_1_Conv2d_0a_1x1 (None, 12, 12, 256)  229376      Block17_10_Activation[0][0]      \n","__________________________________________________________________________________________________\n","Mixed_7a_Branch_2_Conv2d_0b_3x3 (None, 12, 12, 256)  589824      Mixed_7a_Branch_2_Conv2d_0a_1x1_A\n","__________________________________________________________________________________________________\n","Mixed_7a_Branch_0_Conv2d_0a_1x1 (None, 12, 12, 256)  768         Mixed_7a_Branch_0_Conv2d_0a_1x1[0\n","__________________________________________________________________________________________________\n","Mixed_7a_Branch_1_Conv2d_0a_1x1 (None, 12, 12, 256)  768         Mixed_7a_Branch_1_Conv2d_0a_1x1[0\n","__________________________________________________________________________________________________\n","Mixed_7a_Branch_2_Conv2d_0b_3x3 (None, 12, 12, 256)  768         Mixed_7a_Branch_2_Conv2d_0b_3x3[0\n","__________________________________________________________________________________________________\n","Mixed_7a_Branch_0_Conv2d_0a_1x1 (None, 12, 12, 256)  0           Mixed_7a_Branch_0_Conv2d_0a_1x1_B\n","__________________________________________________________________________________________________\n","Mixed_7a_Branch_1_Conv2d_0a_1x1 (None, 12, 12, 256)  0           Mixed_7a_Branch_1_Conv2d_0a_1x1_B\n","__________________________________________________________________________________________________\n","Mixed_7a_Branch_2_Conv2d_0b_3x3 (None, 12, 12, 256)  0           Mixed_7a_Branch_2_Conv2d_0b_3x3_B\n","__________________________________________________________________________________________________\n","Mixed_7a_Branch_0_Conv2d_1a_3x3 (None, 5, 5, 384)    884736      Mixed_7a_Branch_0_Conv2d_0a_1x1_A\n","__________________________________________________________________________________________________\n","Mixed_7a_Branch_1_Conv2d_1a_3x3 (None, 5, 5, 256)    589824      Mixed_7a_Branch_1_Conv2d_0a_1x1_A\n","__________________________________________________________________________________________________\n","Mixed_7a_Branch_2_Conv2d_1a_3x3 (None, 5, 5, 256)    589824      Mixed_7a_Branch_2_Conv2d_0b_3x3_A\n","__________________________________________________________________________________________________\n","Mixed_7a_Branch_0_Conv2d_1a_3x3 (None, 5, 5, 384)    1152        Mixed_7a_Branch_0_Conv2d_1a_3x3[0\n","__________________________________________________________________________________________________\n","Mixed_7a_Branch_1_Conv2d_1a_3x3 (None, 5, 5, 256)    768         Mixed_7a_Branch_1_Conv2d_1a_3x3[0\n","__________________________________________________________________________________________________\n","Mixed_7a_Branch_2_Conv2d_1a_3x3 (None, 5, 5, 256)    768         Mixed_7a_Branch_2_Conv2d_1a_3x3[0\n","__________________________________________________________________________________________________\n","Mixed_7a_Branch_0_Conv2d_1a_3x3 (None, 5, 5, 384)    0           Mixed_7a_Branch_0_Conv2d_1a_3x3_B\n","__________________________________________________________________________________________________\n","Mixed_7a_Branch_1_Conv2d_1a_3x3 (None, 5, 5, 256)    0           Mixed_7a_Branch_1_Conv2d_1a_3x3_B\n","__________________________________________________________________________________________________\n","Mixed_7a_Branch_2_Conv2d_1a_3x3 (None, 5, 5, 256)    0           Mixed_7a_Branch_2_Conv2d_1a_3x3_B\n","__________________________________________________________________________________________________\n","Mixed_7a_Branch_3_MaxPool_1a_3x (None, 5, 5, 896)    0           Block17_10_Activation[0][0]      \n","__________________________________________________________________________________________________\n","Mixed_7a (Concatenate)          (None, 5, 5, 1792)   0           Mixed_7a_Branch_0_Conv2d_1a_3x3_A\n","                                                                 Mixed_7a_Branch_1_Conv2d_1a_3x3_A\n","                                                                 Mixed_7a_Branch_2_Conv2d_1a_3x3_A\n","                                                                 Mixed_7a_Branch_3_MaxPool_1a_3x3[\n","__________________________________________________________________________________________________\n","Block8_1_Branch_1_Conv2d_0a_1x1 (None, 5, 5, 192)    344064      Mixed_7a[0][0]                   \n","__________________________________________________________________________________________________\n","Block8_1_Branch_1_Conv2d_0a_1x1 (None, 5, 5, 192)    576         Block8_1_Branch_1_Conv2d_0a_1x1[0\n","__________________________________________________________________________________________________\n","Block8_1_Branch_1_Conv2d_0a_1x1 (None, 5, 5, 192)    0           Block8_1_Branch_1_Conv2d_0a_1x1_B\n","__________________________________________________________________________________________________\n","Block8_1_Branch_1_Conv2d_0b_1x3 (None, 5, 5, 192)    110592      Block8_1_Branch_1_Conv2d_0a_1x1_A\n","__________________________________________________________________________________________________\n","Block8_1_Branch_1_Conv2d_0b_1x3 (None, 5, 5, 192)    576         Block8_1_Branch_1_Conv2d_0b_1x3[0\n","__________________________________________________________________________________________________\n","Block8_1_Branch_1_Conv2d_0b_1x3 (None, 5, 5, 192)    0           Block8_1_Branch_1_Conv2d_0b_1x3_B\n","__________________________________________________________________________________________________\n","Block8_1_Branch_0_Conv2d_1x1 (C (None, 5, 5, 192)    344064      Mixed_7a[0][0]                   \n","__________________________________________________________________________________________________\n","Block8_1_Branch_1_Conv2d_0c_3x1 (None, 5, 5, 192)    110592      Block8_1_Branch_1_Conv2d_0b_1x3_A\n","__________________________________________________________________________________________________\n","Block8_1_Branch_0_Conv2d_1x1_Ba (None, 5, 5, 192)    576         Block8_1_Branch_0_Conv2d_1x1[0][0\n","__________________________________________________________________________________________________\n","Block8_1_Branch_1_Conv2d_0c_3x1 (None, 5, 5, 192)    576         Block8_1_Branch_1_Conv2d_0c_3x1[0\n","__________________________________________________________________________________________________\n","Block8_1_Branch_0_Conv2d_1x1_Ac (None, 5, 5, 192)    0           Block8_1_Branch_0_Conv2d_1x1_Batc\n","__________________________________________________________________________________________________\n","Block8_1_Branch_1_Conv2d_0c_3x1 (None, 5, 5, 192)    0           Block8_1_Branch_1_Conv2d_0c_3x1_B\n","__________________________________________________________________________________________________\n","Block8_1_Concatenate (Concatena (None, 5, 5, 384)    0           Block8_1_Branch_0_Conv2d_1x1_Acti\n","                                                                 Block8_1_Branch_1_Conv2d_0c_3x1_A\n","__________________________________________________________________________________________________\n","Block8_1_Conv2d_1x1 (Conv2D)    (None, 5, 5, 1792)   689920      Block8_1_Concatenate[0][0]       \n","__________________________________________________________________________________________________\n","lambda_36 (Lambda)              (None, 5, 5, 1792)   0           Block8_1_Conv2d_1x1[0][0]        \n","__________________________________________________________________________________________________\n","add_36 (Add)                    (None, 5, 5, 1792)   0           Mixed_7a[0][0]                   \n","                                                                 lambda_36[0][0]                  \n","__________________________________________________________________________________________________\n","Block8_1_Activation (Activation (None, 5, 5, 1792)   0           add_36[0][0]                     \n","__________________________________________________________________________________________________\n","Block8_2_Branch_1_Conv2d_0a_1x1 (None, 5, 5, 192)    344064      Block8_1_Activation[0][0]        \n","__________________________________________________________________________________________________\n","Block8_2_Branch_1_Conv2d_0a_1x1 (None, 5, 5, 192)    576         Block8_2_Branch_1_Conv2d_0a_1x1[0\n","__________________________________________________________________________________________________\n","Block8_2_Branch_1_Conv2d_0a_1x1 (None, 5, 5, 192)    0           Block8_2_Branch_1_Conv2d_0a_1x1_B\n","__________________________________________________________________________________________________\n","Block8_2_Branch_1_Conv2d_0b_1x3 (None, 5, 5, 192)    110592      Block8_2_Branch_1_Conv2d_0a_1x1_A\n","__________________________________________________________________________________________________\n","Block8_2_Branch_1_Conv2d_0b_1x3 (None, 5, 5, 192)    576         Block8_2_Branch_1_Conv2d_0b_1x3[0\n","__________________________________________________________________________________________________\n","Block8_2_Branch_1_Conv2d_0b_1x3 (None, 5, 5, 192)    0           Block8_2_Branch_1_Conv2d_0b_1x3_B\n","__________________________________________________________________________________________________\n","Block8_2_Branch_0_Conv2d_1x1 (C (None, 5, 5, 192)    344064      Block8_1_Activation[0][0]        \n","__________________________________________________________________________________________________\n","Block8_2_Branch_1_Conv2d_0c_3x1 (None, 5, 5, 192)    110592      Block8_2_Branch_1_Conv2d_0b_1x3_A\n","__________________________________________________________________________________________________\n","Block8_2_Branch_0_Conv2d_1x1_Ba (None, 5, 5, 192)    576         Block8_2_Branch_0_Conv2d_1x1[0][0\n","__________________________________________________________________________________________________\n","Block8_2_Branch_1_Conv2d_0c_3x1 (None, 5, 5, 192)    576         Block8_2_Branch_1_Conv2d_0c_3x1[0\n","__________________________________________________________________________________________________\n","Block8_2_Branch_0_Conv2d_1x1_Ac (None, 5, 5, 192)    0           Block8_2_Branch_0_Conv2d_1x1_Batc\n","__________________________________________________________________________________________________\n","Block8_2_Branch_1_Conv2d_0c_3x1 (None, 5, 5, 192)    0           Block8_2_Branch_1_Conv2d_0c_3x1_B\n","__________________________________________________________________________________________________\n","Block8_2_Concatenate (Concatena (None, 5, 5, 384)    0           Block8_2_Branch_0_Conv2d_1x1_Acti\n","                                                                 Block8_2_Branch_1_Conv2d_0c_3x1_A\n","__________________________________________________________________________________________________\n","Block8_2_Conv2d_1x1 (Conv2D)    (None, 5, 5, 1792)   689920      Block8_2_Concatenate[0][0]       \n","__________________________________________________________________________________________________\n","lambda_37 (Lambda)              (None, 5, 5, 1792)   0           Block8_2_Conv2d_1x1[0][0]        \n","__________________________________________________________________________________________________\n","add_37 (Add)                    (None, 5, 5, 1792)   0           Block8_1_Activation[0][0]        \n","                                                                 lambda_37[0][0]                  \n","__________________________________________________________________________________________________\n","Block8_2_Activation (Activation (None, 5, 5, 1792)   0           add_37[0][0]                     \n","__________________________________________________________________________________________________\n","Block8_3_Branch_1_Conv2d_0a_1x1 (None, 5, 5, 192)    344064      Block8_2_Activation[0][0]        \n","__________________________________________________________________________________________________\n","Block8_3_Branch_1_Conv2d_0a_1x1 (None, 5, 5, 192)    576         Block8_3_Branch_1_Conv2d_0a_1x1[0\n","__________________________________________________________________________________________________\n","Block8_3_Branch_1_Conv2d_0a_1x1 (None, 5, 5, 192)    0           Block8_3_Branch_1_Conv2d_0a_1x1_B\n","__________________________________________________________________________________________________\n","Block8_3_Branch_1_Conv2d_0b_1x3 (None, 5, 5, 192)    110592      Block8_3_Branch_1_Conv2d_0a_1x1_A\n","__________________________________________________________________________________________________\n","Block8_3_Branch_1_Conv2d_0b_1x3 (None, 5, 5, 192)    576         Block8_3_Branch_1_Conv2d_0b_1x3[0\n","__________________________________________________________________________________________________\n","Block8_3_Branch_1_Conv2d_0b_1x3 (None, 5, 5, 192)    0           Block8_3_Branch_1_Conv2d_0b_1x3_B\n","__________________________________________________________________________________________________\n","Block8_3_Branch_0_Conv2d_1x1 (C (None, 5, 5, 192)    344064      Block8_2_Activation[0][0]        \n","__________________________________________________________________________________________________\n","Block8_3_Branch_1_Conv2d_0c_3x1 (None, 5, 5, 192)    110592      Block8_3_Branch_1_Conv2d_0b_1x3_A\n","__________________________________________________________________________________________________\n","Block8_3_Branch_0_Conv2d_1x1_Ba (None, 5, 5, 192)    576         Block8_3_Branch_0_Conv2d_1x1[0][0\n","__________________________________________________________________________________________________\n","Block8_3_Branch_1_Conv2d_0c_3x1 (None, 5, 5, 192)    576         Block8_3_Branch_1_Conv2d_0c_3x1[0\n","__________________________________________________________________________________________________\n","Block8_3_Branch_0_Conv2d_1x1_Ac (None, 5, 5, 192)    0           Block8_3_Branch_0_Conv2d_1x1_Batc\n","__________________________________________________________________________________________________\n","Block8_3_Branch_1_Conv2d_0c_3x1 (None, 5, 5, 192)    0           Block8_3_Branch_1_Conv2d_0c_3x1_B\n","__________________________________________________________________________________________________\n","Block8_3_Concatenate (Concatena (None, 5, 5, 384)    0           Block8_3_Branch_0_Conv2d_1x1_Acti\n","                                                                 Block8_3_Branch_1_Conv2d_0c_3x1_A\n","__________________________________________________________________________________________________\n","Block8_3_Conv2d_1x1 (Conv2D)    (None, 5, 5, 1792)   689920      Block8_3_Concatenate[0][0]       \n","__________________________________________________________________________________________________\n","lambda_38 (Lambda)              (None, 5, 5, 1792)   0           Block8_3_Conv2d_1x1[0][0]        \n","__________________________________________________________________________________________________\n","add_38 (Add)                    (None, 5, 5, 1792)   0           Block8_2_Activation[0][0]        \n","                                                                 lambda_38[0][0]                  \n","__________________________________________________________________________________________________\n","Block8_3_Activation (Activation (None, 5, 5, 1792)   0           add_38[0][0]                     \n","__________________________________________________________________________________________________\n","Block8_4_Branch_1_Conv2d_0a_1x1 (None, 5, 5, 192)    344064      Block8_3_Activation[0][0]        \n","__________________________________________________________________________________________________\n","Block8_4_Branch_1_Conv2d_0a_1x1 (None, 5, 5, 192)    576         Block8_4_Branch_1_Conv2d_0a_1x1[0\n","__________________________________________________________________________________________________\n","Block8_4_Branch_1_Conv2d_0a_1x1 (None, 5, 5, 192)    0           Block8_4_Branch_1_Conv2d_0a_1x1_B\n","__________________________________________________________________________________________________\n","Block8_4_Branch_1_Conv2d_0b_1x3 (None, 5, 5, 192)    110592      Block8_4_Branch_1_Conv2d_0a_1x1_A\n","__________________________________________________________________________________________________\n","Block8_4_Branch_1_Conv2d_0b_1x3 (None, 5, 5, 192)    576         Block8_4_Branch_1_Conv2d_0b_1x3[0\n","__________________________________________________________________________________________________\n","Block8_4_Branch_1_Conv2d_0b_1x3 (None, 5, 5, 192)    0           Block8_4_Branch_1_Conv2d_0b_1x3_B\n","__________________________________________________________________________________________________\n","Block8_4_Branch_0_Conv2d_1x1 (C (None, 5, 5, 192)    344064      Block8_3_Activation[0][0]        \n","__________________________________________________________________________________________________\n","Block8_4_Branch_1_Conv2d_0c_3x1 (None, 5, 5, 192)    110592      Block8_4_Branch_1_Conv2d_0b_1x3_A\n","__________________________________________________________________________________________________\n","Block8_4_Branch_0_Conv2d_1x1_Ba (None, 5, 5, 192)    576         Block8_4_Branch_0_Conv2d_1x1[0][0\n","__________________________________________________________________________________________________\n","Block8_4_Branch_1_Conv2d_0c_3x1 (None, 5, 5, 192)    576         Block8_4_Branch_1_Conv2d_0c_3x1[0\n","__________________________________________________________________________________________________\n","Block8_4_Branch_0_Conv2d_1x1_Ac (None, 5, 5, 192)    0           Block8_4_Branch_0_Conv2d_1x1_Batc\n","__________________________________________________________________________________________________\n","Block8_4_Branch_1_Conv2d_0c_3x1 (None, 5, 5, 192)    0           Block8_4_Branch_1_Conv2d_0c_3x1_B\n","__________________________________________________________________________________________________\n","Block8_4_Concatenate (Concatena (None, 5, 5, 384)    0           Block8_4_Branch_0_Conv2d_1x1_Acti\n","                                                                 Block8_4_Branch_1_Conv2d_0c_3x1_A\n","__________________________________________________________________________________________________\n","Block8_4_Conv2d_1x1 (Conv2D)    (None, 5, 5, 1792)   689920      Block8_4_Concatenate[0][0]       \n","__________________________________________________________________________________________________\n","lambda_39 (Lambda)              (None, 5, 5, 1792)   0           Block8_4_Conv2d_1x1[0][0]        \n","__________________________________________________________________________________________________\n","add_39 (Add)                    (None, 5, 5, 1792)   0           Block8_3_Activation[0][0]        \n","                                                                 lambda_39[0][0]                  \n","__________________________________________________________________________________________________\n","Block8_4_Activation (Activation (None, 5, 5, 1792)   0           add_39[0][0]                     \n","__________________________________________________________________________________________________\n","Block8_5_Branch_1_Conv2d_0a_1x1 (None, 5, 5, 192)    344064      Block8_4_Activation[0][0]        \n","__________________________________________________________________________________________________\n","Block8_5_Branch_1_Conv2d_0a_1x1 (None, 5, 5, 192)    576         Block8_5_Branch_1_Conv2d_0a_1x1[0\n","__________________________________________________________________________________________________\n","Block8_5_Branch_1_Conv2d_0a_1x1 (None, 5, 5, 192)    0           Block8_5_Branch_1_Conv2d_0a_1x1_B\n","__________________________________________________________________________________________________\n","Block8_5_Branch_1_Conv2d_0b_1x3 (None, 5, 5, 192)    110592      Block8_5_Branch_1_Conv2d_0a_1x1_A\n","__________________________________________________________________________________________________\n","Block8_5_Branch_1_Conv2d_0b_1x3 (None, 5, 5, 192)    576         Block8_5_Branch_1_Conv2d_0b_1x3[0\n","__________________________________________________________________________________________________\n","Block8_5_Branch_1_Conv2d_0b_1x3 (None, 5, 5, 192)    0           Block8_5_Branch_1_Conv2d_0b_1x3_B\n","__________________________________________________________________________________________________\n","Block8_5_Branch_0_Conv2d_1x1 (C (None, 5, 5, 192)    344064      Block8_4_Activation[0][0]        \n","__________________________________________________________________________________________________\n","Block8_5_Branch_1_Conv2d_0c_3x1 (None, 5, 5, 192)    110592      Block8_5_Branch_1_Conv2d_0b_1x3_A\n","__________________________________________________________________________________________________\n","Block8_5_Branch_0_Conv2d_1x1_Ba (None, 5, 5, 192)    576         Block8_5_Branch_0_Conv2d_1x1[0][0\n","__________________________________________________________________________________________________\n","Block8_5_Branch_1_Conv2d_0c_3x1 (None, 5, 5, 192)    576         Block8_5_Branch_1_Conv2d_0c_3x1[0\n","__________________________________________________________________________________________________\n","Block8_5_Branch_0_Conv2d_1x1_Ac (None, 5, 5, 192)    0           Block8_5_Branch_0_Conv2d_1x1_Batc\n","__________________________________________________________________________________________________\n","Block8_5_Branch_1_Conv2d_0c_3x1 (None, 5, 5, 192)    0           Block8_5_Branch_1_Conv2d_0c_3x1_B\n","__________________________________________________________________________________________________\n","Block8_5_Concatenate (Concatena (None, 5, 5, 384)    0           Block8_5_Branch_0_Conv2d_1x1_Acti\n","                                                                 Block8_5_Branch_1_Conv2d_0c_3x1_A\n","__________________________________________________________________________________________________\n","Block8_5_Conv2d_1x1 (Conv2D)    (None, 5, 5, 1792)   689920      Block8_5_Concatenate[0][0]       \n","__________________________________________________________________________________________________\n","lambda_40 (Lambda)              (None, 5, 5, 1792)   0           Block8_5_Conv2d_1x1[0][0]        \n","__________________________________________________________________________________________________\n","add_40 (Add)                    (None, 5, 5, 1792)   0           Block8_4_Activation[0][0]        \n","                                                                 lambda_40[0][0]                  \n","__________________________________________________________________________________________________\n","Block8_5_Activation (Activation (None, 5, 5, 1792)   0           add_40[0][0]                     \n","__________________________________________________________________________________________________\n","Block8_6_Branch_1_Conv2d_0a_1x1 (None, 5, 5, 192)    344064      Block8_5_Activation[0][0]        \n","__________________________________________________________________________________________________\n","Block8_6_Branch_1_Conv2d_0a_1x1 (None, 5, 5, 192)    576         Block8_6_Branch_1_Conv2d_0a_1x1[0\n","__________________________________________________________________________________________________\n","Block8_6_Branch_1_Conv2d_0a_1x1 (None, 5, 5, 192)    0           Block8_6_Branch_1_Conv2d_0a_1x1_B\n","__________________________________________________________________________________________________\n","Block8_6_Branch_1_Conv2d_0b_1x3 (None, 5, 5, 192)    110592      Block8_6_Branch_1_Conv2d_0a_1x1_A\n","__________________________________________________________________________________________________\n","Block8_6_Branch_1_Conv2d_0b_1x3 (None, 5, 5, 192)    576         Block8_6_Branch_1_Conv2d_0b_1x3[0\n","__________________________________________________________________________________________________\n","Block8_6_Branch_1_Conv2d_0b_1x3 (None, 5, 5, 192)    0           Block8_6_Branch_1_Conv2d_0b_1x3_B\n","__________________________________________________________________________________________________\n","Block8_6_Branch_0_Conv2d_1x1 (C (None, 5, 5, 192)    344064      Block8_5_Activation[0][0]        \n","__________________________________________________________________________________________________\n","Block8_6_Branch_1_Conv2d_0c_3x1 (None, 5, 5, 192)    110592      Block8_6_Branch_1_Conv2d_0b_1x3_A\n","__________________________________________________________________________________________________\n","Block8_6_Branch_0_Conv2d_1x1_Ba (None, 5, 5, 192)    576         Block8_6_Branch_0_Conv2d_1x1[0][0\n","__________________________________________________________________________________________________\n","Block8_6_Branch_1_Conv2d_0c_3x1 (None, 5, 5, 192)    576         Block8_6_Branch_1_Conv2d_0c_3x1[0\n","__________________________________________________________________________________________________\n","Block8_6_Branch_0_Conv2d_1x1_Ac (None, 5, 5, 192)    0           Block8_6_Branch_0_Conv2d_1x1_Batc\n","__________________________________________________________________________________________________\n","Block8_6_Branch_1_Conv2d_0c_3x1 (None, 5, 5, 192)    0           Block8_6_Branch_1_Conv2d_0c_3x1_B\n","__________________________________________________________________________________________________\n","Block8_6_Concatenate (Concatena (None, 5, 5, 384)    0           Block8_6_Branch_0_Conv2d_1x1_Acti\n","                                                                 Block8_6_Branch_1_Conv2d_0c_3x1_A\n","__________________________________________________________________________________________________\n","Block8_6_Conv2d_1x1 (Conv2D)    (None, 5, 5, 1792)   689920      Block8_6_Concatenate[0][0]       \n","__________________________________________________________________________________________________\n","lambda_41 (Lambda)              (None, 5, 5, 1792)   0           Block8_6_Conv2d_1x1[0][0]        \n","__________________________________________________________________________________________________\n","add_41 (Add)                    (None, 5, 5, 1792)   0           Block8_5_Activation[0][0]        \n","                                                                 lambda_41[0][0]                  \n","__________________________________________________________________________________________________\n","flatten (Flatten)               (None, 44800)        0           add_41[0][0]                     \n","__________________________________________________________________________________________________\n","dense (Dense)                   (None, 1024)         45876224    flatten[0][0]                    \n","__________________________________________________________________________________________________\n","dense_1 (Dense)                 (None, 60)           61500       dense[0][0]                      \n","==================================================================================================\n","Total params: 68,516,108\n","Trainable params: 45,937,724\n","Non-trainable params: 22,578,384\n","__________________________________________________________________________________________________\n"]}]},{"cell_type":"code","metadata":{"colab":{"base_
…
